models/critic_x.pt (torch, 9875 bytes, 3 tensors)

dense1.weight f4 [20, 100]
-0.08252933 -0.047799174 0.08500879 -0.009561328 0.010466122 0.021549065 0.0849851 0.0065706475
-0.04477195 0.007473143 0.06393488 0.034280203 -0.017978065 0.09197441 0.07314983 -0.07489352
0.058643278 0.09037881 0.00043386227 -0.09613462 0.023434136 -0.057769246 -0.09663693 -0.03444432
-0.08388185 -0.0148100555 0.047291856 0.014519994 -0.09370689 -0.08882113 0.03974189 -0.036870208
0.02615446 -0.065685205 -0.012461061 -0.015278629 0.0030732206 0.076987326 0.09475969 -0.04469686
-0.097983755 -0.015047427 0.06325319 -0.051371373 -0.033515636 0.017660586 0.021681916 0.08402976
0.044315457 -0.071086176 0.018925337 0.056116134 -0.016272895 -0.060273528 0.041418042 -0.055356313
0.07862936 -0.055513687 0.08661752 0.0066857524 -0.08556726 -0.074700385 -0.002073659 0.09931845
0.055342097 0.07214347 -0.034603164 -0.055857636 -0.02230256 0.07417848 0.04211119 0.016807988
-0.022610893 0.031865243 -0.07374879 0.010052125 -0.04959027 -0.06681062 -0.060174126 -0.08426768
0.019403238 0.079973415 0.028783683 -0.023714256 -0.01355368 -0.086907804 0.07261684 -0.012843159
0.08258822 0.097476326 0.07842671 0.04366129 0.08298917 -0.005107259 0.04574932 0.006752165
0.074493326 -0.0028210788 0.0055059325 0.011289867 -0.0777997 0.025310945 0.0767336 0.06965238
-0.057030454 -0.0030063 0.07582639 -0.09197202 0.01010706 0.0763957 -0.022714647 -0.06786523
0.05616718 -0.09441767 0.062632106 0.012260924 0.09795539 0.058117494 0.06359676 0.0824628
-0.013600352 0.039810814 -0.062984675 -0.044458598 -0.023099985 0.004559504 0.097506434 -0.07960813
-0.075207114 0.004352651 -0.0139141055 -0.076854564 0.06478444 0.09581372 0.072805285 0.06582138
0.009320852 0.0020402414 -0.028719101 0.072356306 -0.0036885322 0.076989986 0.08103184 -0.01909052
-0.042281 0.007881561 -0.09163625 -0.03870828 0.047929853 0.017566351 -0.05555436 0.03854033
0.046316937 0.082447976 0.08785506 0.017728576 -0.01937336 -0.059199885 0.09878369 -0.043117397
-0.09932569 -0.015435267 -0.07845203 0.01603269 0.058188554 0.042019706 0.038648736 0.07431163
-0.0355034 0.094147444 0.017302297 0.02945075 -0.06954606 0.021318613 -0.010653158 0.08508421
0.09518844 0.029047111 -0.072449274 -0.05859664 0.012308875 -0.009806218 -0.06795159 0.04185988
0.04221704 0.025954211 0.08267227 -0.015984688 -0.08052997 0.003845734 -0.08958223 -0.09098388
-0.08515106 0.09096793 0.08381263 -0.0683192 -0.093737274 0.045031082 -0.04403426 0.03760814
-0.058884826 -0.06352025 -0.032976378 0.035321645 -0.07750423 0.08044105 -0.02289639 -0.08887459
0.019596279 0.0646364 -0.06946082 0.07525945 0.087246664 0.03789578 0.014905164 0.07149
-0.073219255 0.013173389 0.05658581 0.0013253891 0.021231582 0.043107785 0.028276931 -0.077343315
-0.012028311 -0.04943545 -0.079655856 0.06492408 0.09622167 -0.08744174 -0.09522051 0.011453654
-0.018318225 0.04724852 0.090708815 -0.0072643952 0.060486693 0.03792374 0.073781975 0.054282833
0.08873433 -0.078433804 -0.010732428 -0.051659357 -0.020610344 -0.051730923 -0.03273643 -0.03118728
-0.038404647 -0.06423706 -0.055485364 0.031652324 -0.06774505 0.056679275 -0.060335375 -0.023087159
00000000: 2305 a9bd 11c9 43bd 1719 ae3d 1ea7 1cbc
00000010: 197a 2b3c aa87 b03c ab0c ae3d 964e d73b
00000020: cb62 37bd 44e1 f43b 4af0 823d 6669 0c3d
00000030: bc46 93bc 145d bc3d 94cf 953d c661 99bd
00000040: ef33 703d 8718 b93d 0278 e339 3ae2 c4bd
00000050: f2f8 bf3c 729f 6cbd 95e9 c5bd 7d15 0dbd
00000060: 3fca abbd e0a5 72bc 1bb5 413d 45e5 6d3c
00000070: 66e9 bfbd dae7 b5bd 64c8 223d 3705 17bd
00000080: e141 d63c f785 86bd 7a29 4cbc 3753 7abc
00000090: 1668 493b 88ab 9d3d 5e11 c23d 0e14 37bd
000000a0: b5ab c8bd 7c89 76bc e38a 813d ca6a 52bd
000000b0: b147 09bd efac 903c 469e b13c cb17 ac3d
000000c0: 2084 353d a195 91bd 4f09 9b3c 08da 653d
000000d0: bc4e 85bc 60e1 76bd f7a5 293d 4dbd 62bd
000000e0: 6e08 a13d 5262 63bd 8764 b13d 2814 db3b
000000f0: e33d afbd 84fc 98bd 3ae6 07bb 7967 cb3d
00000100: 65ae 623d f5bf 933d 0cbc 0dbd faca 64bd
00000110: dcb3 b6bc e3ea 973d c87c 2c3d e8b0 893c
00000120: 7b3a b9bc 2185 023d 9b09 97bd abb1 243c
00000130: 2b1f 4bbd 02d4 88bd 2579 76bd 8994 acbd
00000140: 8af3 9e3c 1ac9 a33d c2cb eb3c 6644 c2bc
00000150: 4110 5ebc b8fc b1bd 23b8 943d 1d6c 52bc
00000160: 0324 a93d aba1 c73d 2f9e a03d 2ed6 323d
00000170: 3af6 a93d cb5a a7bb a463 3b3d 4441 dd3b
00000180: f58f 983d d9e1 38bb 1c6b b43b 22f9 383c
00000190: 7355 9fbd e658 cf3c 8126 9d3d e8a5 8e3d
000001a0: c498 69bd 5805 45bb de4a 9b3d d45b bcbd
000001b0: 1598 253c 5975 9c3d 1114 babc edfc 8abd
000001c0: 8f0f 663d 0d5e c1bd 4345 803d 0be2 483c
000001d0: d69c c83d 9c0c 6e3d 053f 823d 42e2 a83d
000001e0: 03d4 5ebc aa10 233d 1cfe 80bd 381a 36bd
000001f0: 2e3c bdbc e467 953b 74b1 c73d 9609 a3bd
00000200: 3006 9abd afa0 8e3b fdf7 63bc ed65 9dbd
00000210: b4ad 843d fc39 c43d f01a 953d 5ccd 863d
00000220: 7db6 183c 92b5 053b 5244 ebbc 8b2f 943d
00000230: 4dbb 71bb edac 9d3d 05f4 a53d b963 9cbc
00000240: d82e 2dbd aa21 013c c9ab bbbd 938c 1ebd
00000250: 1852 443d 4fe7 8f3c f88c 63bd 77dc 1d3d
00000260: d4b6 3d3d 7cda a83d 5bed b33d 853b 913c
00000270: e1b4 9ebc 947b 72bd 1a4f ca3d de9b 30bd
00000280: 446b cbbd 34e4 7cbc 75ab a0bd fd56 833c
00000290: 1f57 6e3d db1c 2c3d 234e 1e3d b230 983d
000002a0: 036c 11bd 60d0 c03d 8cbd 8d3c b342 f13c
000002b0: 2a6e 8ebd 5fa4 ae3c 958a 2ebc a140 ae3d
000002c0: 28f2 c23d 35f4 ed3c 4960 94bd 0803 70bd
000002d0: 2aab 493c 42aa 20bc 342a 8bbd 4475 2b3d
000002e0: c6eb 2c3d ed9d d43c 1450 a93d 52f2 82bc
000002f0: e6ec a4bd b608 7c3b e376 b7bd c255 babd
00000300: ae63 aebd 654d ba3d f5a5 ab3d f0ea 8bbd
00000310: 54f9 bfbd 8372 383d 455d 34bd fe0a 1a3d
00000320: 3731 71bd e816 82bd 3d12 07bd 6ead 103d
00000330: 8aba 9ebd 47be a43d 3691 bbbc e203 b6bd
00000340: 6088 a03c 1760 843d 7941 8ebd a021 9a3d
00000350: 61ae b23d 9b38 1b3d ca34 743c 5969 923d
00000360: faf3 95bd 33d5 573c 86c6 673d aeb8 ad3a
00000370: dbed ad3c ca91 303d 06a5 e73c 2c66 9ebd
00000380: 6512 45bc d47c 4abd 9c22 a3bd ebf6 843d
00000390: de0f c53d a814 b3bd f902 c3bd 1ba8 3b3c
000003a0: 1a10 96bc aa87 413d 8bc5 b93d 2a0a eebb
000003b0: e5c0 773d ec55 1b3d 011b 973d ad57 5e3d
000003c0: 58ba b53d e7a1 a0bd 11d7 2fbc c398 53bd
000003d0: 06d7 a8bc cee3 53bd a316 06bd 777c ffbc
000003e0: 314e 1dbd b88e 83bd 9f44 63bd dea5 013d
000003f0: ebbd 8abd 8728 683d 3a22 77bd 4821 bdbc

dense1.bias f4 [20]
-0.096212424 -0.07368469 0.009499808 0.021017736 -0.085199036 -0.022208685 -0.028250618 0.07487698
-0.070189536 0.09932863 0.039048206 -0.034824677 0.035286643 0.036427867 -0.041030247 -0.034895323
0.029474063 0.08748072 0.024267523 -0.094608106
00000000: 050b c5bd 00e8 96bd 15a5 1b3c 632d ac3c
00000010: d57c aebd fdee b5bc d76d e7bc 1a59 993d
00000020: 88bf 8fbd cf6c cb3d 03f1 1f3d 52a4 0ebd
00000030: ba88 103d 6335 153d 550f 28bd 66ee 0ebd
00000040: 9773 f13c 1729 b33d afcc c63c e5c1 c1bd

dense2.weight f4 [1, 20]
0.08421248 -0.20400219 -0.04497769 -0.12790503 0.029457022 0.15868562 0.13661255 -0.07037338
0.21584639 -0.1547194 -0.20003168 0.088875145 0.19935915 0.14766498 0.012406912 0.13139375
0.13758387 0.124688156 0.021534363 -0.13910551
00000000: 9877 ac3d f3e5 50be 873a 38bd 89f9 02be
00000010: da4f f13c 7c7e 223e 29e4 0b3e eb1f 90bd
00000020: d606 5d3e c36e 1ebe 1bd5 4cbe 2c04 b63d
00000030: ce24 4c3e 7d35 173e 5c46 4b3c 158c 063e
00000040: c9e2 0c3e 815c ff3d d568 b03c ad71 0ebe
