models/critic_z.pt (torch, 1217 bytes, 1 tensors)

dense1.weight f4 [1, 20]
000000 53 49 24 be 83 87 0f 3e 7c 1f 4c 3e a5 1a 2b 3e
       -0.16043596 0.14016537 0.19933885 0.16709383
000010 67 78 02 3e 36 9e 65 3d 60 22 70 bc 12 ae 28 3e
       0.12741242 0.056059085 -0.014656633 0.16472653
000020 d5 44 37 bd c0 56 ac 3c 31 5c 0f be 54 8f 41 3e
       -0.044743378 0.02103746 -0.14000012 0.18902332
000030 30 5d 48 3e 7f be 09 be a1 9f 85 3d 12 b8 47 be
       0.19566798 -0.13451575 0.065245874 -0.19503811
000040 69 03 2c 3e b4 ea 29 be 02 6f 10 3e 3d 2c 18 3d
       0.16798176 -0.16593438 0.14104846 0.037151564
