models/decoder.pt (torch, 630929 bytes, 18 tensors)

lstm.weight_ih_l0 f4 [256, 20]
00000000: dfc1 9ebc 2577 adbd b043 813d 434e 38bd
00000010: f418 5f3d 5747 a3bd 7199 e13d 581a 453c
00000020: f771 9dbb b8be 533c e54e 91bd 07da 84bd
00000030: 8b75 ac3d 9b46 92bd 695f dcbd aca1 dd3d
00000040: 4af4 2fbd 2da9 bc3d 8672 c93d b199 a0bd
00000050: f178 be3c c224 80bd c352 1dbd 7d51 efbd
00000060: 5d76 9e3d 2c96 b3bb 9537 273c 5e3a a1bd
00000070: 6240 593d 626a c03d e541 573d 2985 6a3c
00000080: 3e67 d93d bc0d 6b3d 87d0 b0bd c39a e5bd
00000090: 6bff 193d d21c b4bd 20f7 e53d d8c1 e8bd
000000a0: 4e88 913d b23b bbbc 5e8d 95bd 8e78 353d
000000b0: c0ba 1abd 1cfe 82bd 43a1 ccbc cab7 943d
000000c0: 8568 c63c 8cbb f4bd 9335 f63d 102f af3d
000000d0: 3f31 07bd c730 c4bd 98c5 e9bd d8b7 a7bd
000000e0: f9b6 d03d d923 30bd ee2c e4bd 7fc9 c03b
000000f0: f478 72bd 9a61 8c3d e694 b63d ff6e eabd
00000100: 9aa3 5b3d b534 96bb dcb7 cb3c 0888 66bd
00000110: 9284 c43c 26e4 42bd 4550 baba c4d9 a83d
00000120: 4769 c43d 449b d83d 954c 5b3d 0770 d53d
00000130: fc06 503c 157b 063d c669 043d 5a75 d9bc
00000140: 1d50 d3bd 4920 a23d f118 f5bd 57de 15bd
00000150: 082b da3c 236d 43bd 2212 47bd aa0e 393d
00000160: 35a9 2f3d b95a f73d 5092 863d 6ff7 36bd
00000170: dd94 91bd a285 e0bd ec05 02bd 5767 b0bd
00000180: 7ba7 b4bd e2df 473d 8fc4 58bc 40a6 6cbd
00000190: b388 c93d 041b 1dbd aed8 583d 317b 23bd
000001a0: e5dd ea3c c950 573d 9a1e 893d 30a5 c63d
000001b0: 87fe 00bd 5d5c 943d 5eb7 a4bd b2c6 92bd
000001c0: cc51 853d 3961 b03d b879 a53c 9a7e 583c
000001d0: f4ed d53d cd53 89bc dbe7 ebbd a128 30ba
000001e0: 5e43 bebd 9e18 e53c c729 cd3d 6f9f 0cbd
000001f0: 2943 e9bd a1c2 88bd 189f e63d 7072 cbbc
00000200: 506b b8bd aba1 803d eb45 bfbc 40c0 b93d
00000210: b05d 0fbd 199f cdbc 27d4 a5bd eacf 483d
00000220: dd0a fe3c 5a88 f43d a1d1 ffbd e4f0 8ebd
00000230: 968c 9ebd cea8 bd3c c44b e7bc 3066 b0bd
00000240: 9778 a83d 0739 d63d eec5 ea3d ef4f e2bd
00000250: 1554 9f3d 6cac 9c3c 5101 6abc 8aa9 7e3d
00000260: d369 323d a1dd 0bbd fa40 c4bd 6d08 85bc
00000270: 6ddb 783c 8c67 d4bc 1ee3 98bd a482 bf3d
00000280: 9f38 813d 5f30 25bd 7c83 e4bd 1e5c 583d
00000290: 1d95 5cbc ce02 7abd d428 f53d 2e9d e43d
000002a0: ec81 a73d 0867 af3d cdfc d33d b66f 1d3d
000002b0: 3f0c bf3c 3a0f a03d e08e ae3d 8cf4 1c3c
000002c0: 95f2 953d 3fc2 e13d 3629 a6bd f5a2 e5bd
000002d0: 3471 0e3d 93d7 9dbb be2c c9bc 4dee ba3d
000002e0: 20bb c33d 5875 87bd a6fe e13d d701 d1bd
000002f0: 804c 33bc 34a8 f0bd 2b64 933c 5c5c ddbd
00000300: 6db1 b73c a386 eabd 7da9 893d 8dd7 8c3d
00000310: ff45 89bd eaeb eebd 8a74 9dbd 1242 bcbd
00000320: d8c0 a33d 578b 833c 0e75 89bd 3899 d93d
00000330: 867f 04bd ad5e 2d3c c914 213c 20db b93d
00000340: 4cc2 e23d 164c 003d 932b 86bd 2575 f03d
00000350: 0bd0 b23d ebe2 9abd 6db3 d4bd a768 8fbd
00000360: 9dd7 82bd db06 ec3c 4f8b ee3d 141d 2f3c
00000370: 6cd5 18bc 269d 55bc 0b2e 4dbd c93a ad3d
00000380: e9de 2f3c 810b 78bd df8d b5bc 1bbb 73bd
00000390: ec98 d3bb 8aca ea3d 4d36 c3bc b4e9 933c
000003a0: 5e09 f73d 3e2a 933d 7182 acbc 6528 303d
000003b0: 5f68 21bd b8e4 bc3d b8d9 253d fa19 26bd
000003c0: 3377 363d 111c c93b 1e18 e73d 61d5 1fbd
000003d0: 2ce2 923c 1ed2 4a3b 5926 553d 35a2 89bd
000003e0: 518c 2f3d 2ffa 873d 9068 493d 6cde a9bd
000003f0: 7160 76bb 8101 b53d d536 233d 284e 983d
-0.019379554 -0.08469991 0.063117385 -0.04499651 0.054467157 -0.07972591 0.11015595 0.012030207
-0.0048048454 0.012923889 -0.07095126 -0.06486898 0.08420857 -0.07142373 -0.107603855 0.10821852
-0.04295758 0.09211955 0.09836297 -0.07841814 0.023251029 -0.06257011 -0.038409006 -0.116854645
0.0773742 -0.0054805484 0.010206123 -0.07872461 0.053039916 0.09395291 0.052553076 0.014313974
0.10615395 0.057386145 -0.086335234 -0.11211159 0.0375971 -0.087945595 0.11228776 -0.11365098
0.07106076 -0.022855613 -0.07302354 0.044304423 -0.037775755 -0.06396124 -0.02497924 0.072616175
0.02421976 -0.11949834 0.12021937 0.08553898 -0.03300595 -0.09579616 -0.11414641 -0.08189362
0.10191149 -0.043002937 -0.11141382 0.005883395 -0.05919738 0.068545535 0.08915119 -0.11446952
0.05362282 -0.00458392 0.024867944 -0.056282073 0.023988996 -0.04758086 -0.0014214596 0.082446605
0.095903926 0.105764896 0.05353983 0.10421758 0.012696978 0.032832224 0.032327436 -0.026545215
-0.10318015 0.07916314 -0.11967648 -0.036588993 0.026631847 -0.047711503 -0.048601277 0.04518
0.042885978 0.12077851 0.06570876 -0.044669565 -0.071084715 -0.109629884 -0.03174393 -0.086134605
-0.08821007 0.048797496 -0.013230457 -0.057775736 0.098405264 -0.038355842 0.052941017 -0.039912406
0.02867026 0.052567277 0.0669529 0.09699476 -0.031492736 0.072441794 -0.08042787 -0.071668044
0.06509742 0.08612294 0.020199642 0.013213778 0.104457766 -0.016763592 -0.11518832 -0.00067199214
-0.09290193 0.02796584 0.10017734 -0.034331735 -0.11389763 -0.066777475 0.112608135 -0.024834841
-0.09004843 0.06280836 -0.02334877 0.09069872 -0.035001457 -0.025100278 -0.080971055 0.049026407
0.03101104 0.119400695 -0.124911554 -0.0697954 -0.077416584 0.023151781 -0.02823437 -0.08613241
0.08226126 0.10460096 0.11463533 -0.110504024 0.07779709 0.019125186 -0.01428254 0.062173404
0.043557953 -0.03414691 -0.09582706 -0.01623937 0.015189034 -0.025928281 -0.07465194 0.093510896
0.06309628 -0.040329333 -0.11157891 0.052822225 -0.013463286 -0.06103783 0.11970678 0.11162792
0.081790775 0.085645735 0.10350952 0.038436614 0.02332127 0.07815404 0.08523345 0.009579789
0.073216595 0.110233776 -0.08113329 -0.11212722 0.034775928 -0.004816958 -0.024557468 0.091274835
0.09557176 -0.066141784 0.110348985 -0.10205429 -0.010943532 -0.11750832 0.0179921 -0.10808632
0.02242347 -0.11451461 0.067217804 0.068770505 -0.06702804 -0.11666091 -0.07688244 -0.091922894
0.079957664 0.016057653 -0.067117795 0.10624927 -0.03234818 0.0105816545 0.009831616 0.09074998
0.110722154 0.03132256 -0.0655128 0.117410935 0.08731087 -0.075628124 -0.10385785 -0.07002383
-0.06388781 0.028811863 0.11647665 0.010688085 -0.0093282275 -0.013037955 -0.050092738 0.08458478
0.010734298 -0.060557846 -0.022162376 -0.05950461 -0.0064574387 0.114644125 -0.023829604 0.018055774
0.120623335 0.071857914 -0.021058293 0.043007273 -0.039406177 0.09223312 0.040490836 -0.040552117
0.04454727 0.006137379 0.11283897 -0.039021853 0.017930113 0.0030947994 0.052038524 -0.06720392
0.042858426 0.066395156 0.049171984 -0.08294377 -0.0037594105 0.088381775 0.039847214 0.07436782

lstm.weight_hh_l0 f4 [256, 64]
00000000: 3cbb 8bbd befe d13d 9e3c cf3d 50c2 90bd
00000010: 8852 533d 6e4c e3bd a829 d53c 1406 b23d
00000020: fcdc 4bbd ea9d db3d 00c0 483c 5018 143c
00000030: f88d 92bd d279 ebbd cafa 99bd 3092 5a3d
00000040: 2035 b33c fec0 f03d e0e5 e63d 7c2a a5bd
00000050: 3c03 063d 4663 93bd f817 e1bc d292 9d3d
00000060: c047 793b ac6e 82bd f011 22bd 688a abbc
00000070: f41b cdbd f4a9 d3bd f040 7cbc e0e9 88bd
00000080: 00b9 a4bd 747f e53d ac14 14bd 86b6 ac3d
00000090: 8069 e2bd 38ca 883c 90de 253d 901a 69bd
000000a0: d095 f73c 644b 1bbd a8ec a93d 18f3 9cbc
000000b0: f6de abbd 647e 293d 908d 003d 58f9 2a3d
000000c0: e68a 93bd 78df 393d 1817 74bd eea5 a3bd
000000d0: a0e3 bebd 9054 e13d 342c 033d 38b2 813d
000000e0: 0012 ed3a bc82 e6bd 8eb9 ee3d a869 09bd
000000f0: c08c 2a3d de0c c13d e0a7 66bc dc72 4c3d
00000100: 0cd2 19bd a0de de3d c842 b73d fe0b ce3d
00000110: 6cb8 ce3d f0e8 833d e017 4c3d 52cb e43d
00000120: 3c16 60bd 803c ce3d aafa 8abd 0cf1 be3d
00000130: d444 70bd 50bd 343c 2a94 acbd 10bd 953c
00000140: 50f1 9b3c 4808 0d3d d8be e73d 2c82 553d
00000150: 2061 07bd 08d4 fd3c 78aa 88bd b05b aa3d
00000160: 0c1b e8bd b8b0 cd3c 7acf c23d d068 3dbd
00000170: c431 a53d 2081 f8bd 9e3f a0bd 9220 8ebd
00000180: c8ce 65bd 1440 81bd c084 593b f8f5 43bd
00000190: 8076 583d 86a8 a7bd 9024 5ebc c875 b2bc
000001a0: 4072 783c 9011 6dbd 5ce1 05bd b84f 243d
000001b0: f072 79bc 3a21 a73d 84ac 97bd e03a 393c
000001c0: 3e13 873d 847e 283d f0f2 6dbd a0d2 80bd
000001d0: ee76 a13d 8079 c8ba de7d 843d 44fd 833d
000001e0: f276 cfbd 00a8 e1bd c044 cdbb bcf0 77bd
000001f0: a891 f83d b03e a0bd 8827 5e3d 50bc b03d
00000200: 2a8b aa3d c2a0 853d 6c9f fd3d 4243 d53d
00000210: 8c38 903d a4d9 853d e835 efbd ca87 953d
00000220: fa6c c23d f067 5fbc ac38 02bd 100a 363d
00000230: 6224 a9bd be0f ee3d f8a8 843c 54e4 a93d
00000240: 8815 0e3d 02ac edbd 9a16 d53d f01f 863c
00000250: c0ae 6dbb 4e70 edbd 50c7 75bc e02a cf3d
00000260: 60dc 9d3c 1c5b 2fbd 4cf4 643d e016 42bc
00000270: 3ec4 edbd 0893 1cbd 60b3 bbbc 1430 d63d
00000280: 101f 163c e8b0 92bd 4ebb b0bd a2aa d1bd
00000290: e090 1cbd 8a7e e3bd 2023 88bb 6264 97bd
000002a0: 7e5f 8e3d d056 ffbd f4e4 673d c08b 7fbc
000002b0: 1cc2 33bd 8846 f1bd 3e33 8abd b05b 12bc
000002c0: 8478 a1bd 84b6 263d b2dd d2bd 1ce6 dabd
000002d0: ec00 813d 262e 95bd e01a e53c 9c90 5fbd
000002e0: 700a 603d c43c 3bbd 40b1 833b ac90 73bd
000002f0: 4a2b a33d 7cf1 3e3d 20d4 f83d a0d2 4a3d
00000300: 60bc 57bc 3e17 88bd 00ac 6ebb b2d1 9b3d
00000310: a01a bcbb 0045 eb3b 2634 d9bd d6d7 bc3d
00000320: 6234 933d c01d 75bc 2868 f9bc 8800 96bc
00000330: 9291 ce3d e479 9d3d 9a66 db3d 7883 61bd
00000340: 2084 6abd 5a79 b83d e859 db3d c02d 683d
00000350: c44a 963d 701c 12bc 7e42 a0bd 14ac 69bd
00000360: 1029 62bc aa28 d13d ca83 d33d f051 bebc
00000370: aaa4 bf3d a4ce c2bd 7cb6 e43d 90f3 febd
00000380: c08e 1abb f06b 3a3c 04fe 753d 10c5 5d3d
00000390: 84ce 973d 9eba f93d f284 e0bd 5a33 93bd
000003a0: 80b6 debc fa35 8d3d d805 bfbd 1867 d63c
000003b0: e0da 453d 5092 f53c 28ce 08bd f601 b8bd
000003c0: 7ec8 9fbd fc8c 34bd a05c a93b 0000 523c
000003d0: c006 833d 1439 b53d 8efb 8f3d 4078 3d3b
000003e0: 1863 d8bc 0040 1d39 f0f8 2b3d 4481 c93d
000003f0: 8e71 bf3d e80e 82bc bc5c 7bbd a82a 75bd
-0.068228215 0.10253666 0.10118984 -0.07068312 0.05159238 -0.11098562 0.02602084 0.086925656
-0.049771294 0.10723479 0.012252808 0.009039 -0.07155985 -0.11497845 -0.07518537 0.05336207
0.021875918 0.1175556 0.11274314 -0.08064744 0.03271793 -0.07196669 -0.02747725 0.076940194
0.003803715 -0.06368765 -0.039567888 -0.02094002 -0.10015097 -0.1033515 -0.015396342 -0.06685233
-0.080430984 0.112059504 -0.036152527 0.08433251 -0.11055279 0.016697988 0.040495455 -0.056910098
0.030222803 -0.037913695 0.08297092 -0.019158885 -0.08392136 0.0413803 0.031385005 0.0417417
-0.07204227 0.045379132 -0.059592336 -0.07990633 -0.0932076 0.11002457 0.032024577 0.06332821
0.001808703 -0.11255404 0.116564855 -0.033548027 0.041638136 0.09426282 -0.01407811 0.049914226
-0.037553832 0.10882306 0.089482844 0.10060881 0.100937694 0.06440914 0.049827456 0.11171593
-0.054708704 0.10070133 -0.067860916 0.0932332 -0.05865939 0.011031464 -0.084266976 0.018278629
0.019035965 0.034431726 0.113156974 0.052126095 -0.03305161 0.030984893 -0.06673139 0.08318269
-0.11333284 0.02510868 0.09512229 -0.046242535 0.08066133 -0.12134004 -0.07824634 -0.06939806
-0.056105405 -0.0631105 0.0033190697 -0.047841996 0.052847385 -0.0818644 -0.013558522 -0.021784678
0.015163958 -0.057878077 -0.032685623 0.04011509 -0.015225157 0.08160634 -0.074059516 0.011305541
0.06595467 0.04113628 -0.05809301 -0.062901735 0.07884012 -0.0015294999 0.0646932 0.06444791
-0.10130109 -0.110183716 -0.006264299 -0.060532317 0.12137157 -0.07824457 0.05423692 0.08629668
0.08327325 0.06524803 0.12383923 0.10413219 0.070420355 0.06535652 -0.11680204 0.0730129
0.09493442 -0.0136356205 -0.031792328 0.04444319 -0.082588926 0.11624096 0.016193852 0.08295503
0.034688503 -0.116050735 0.104047015 0.01637265 -0.003626749 -0.11593686 -0.015001133 0.101156
0.019270122 -0.042811498 0.055897042 -0.011846274 -0.11609696 -0.038226157 -0.022912681 0.10458389
0.009162679 -0.071626484 -0.086294755 -0.10237624 -0.0382241 -0.1110812 -0.004154578 -0.073921934
0.069518074 -0.1246773 0.05661483 -0.015597284 -0.04388629 -0.11781031 -0.06748055 -0.008932993
-0.07884315 0.040701404 -0.10296191 -0.10688421 0.06299004 -0.07284193 0.027966917 -0.05458127
0.054697454 -0.045712247 0.0040189326 -0.05946414 0.07967241 0.046617016 0.12149835 0.049517274
-0.013167471 -0.06645058 -0.0036418438 0.076083556 -0.0057404786 0.0071798563 -0.1060565 0.09220855
0.071877256 -0.014960706 -0.030445173 -0.0183108 0.10086359 0.076892644 0.10712929 -0.05505702
-0.05725491 0.09007521 0.10710508 0.056684256 0.07338479 -0.008917913 -0.078251824 -0.057048872
-0.013803735 0.10212834 0.10327871 -0.02323243 0.09357579 -0.0951207 0.11167619 -0.124487996
-0.002358362 0.011378273 0.0600567 0.05414301 0.074124366 0.121937975 -0.10962857 -0.07187529
-0.027186632 0.06895061 -0.093272865 0.026172206 0.04830444 0.029976994 -0.03339973 -0.08984749
-0.07801913 -0.044079766 0.0051685125 0.012817383 0.06397772 0.088487774 0.07030402 0.0028910786
-0.02641444 0.00014996529 0.041985452 0.098391086 0.09347831 -0.015876248 -0.061367735 -0.059855133

lstm.bias_ih_l0 f4 [256]
00000000: 8655 b4bb bcee f43d 41dc 3ebd 4506 2d3d
00000010: b02b ce3c 23ff d83d d6b6 a93d 508d 67bd
00000020: 573f eabd 329f b0bd 8e00 73bd a2d6 c23c
00000030: 4ef6 0cbd f039 563c ac76 cf3d e68a 2cbd
00000040: f56c 613d 82d4 bbbd d329 eebd ecd0 cc3d
00000050: 777f c4bd 929d 02bd 39b3 b7bd eebf ea3d
00000060: 84af 183d 49f0 e83d fe45 fa3d b83f c4bb
00000070: 7d67 9cbd 9414 aa3d addd 72bd 0253 bebd
00000080: 9bac cdbc 717b 88bd 3336 e83d e808 5d3d
00000090: 1369 423c a0af c8bd 296c f2bd 7291 933d
000000a0: 5c3e ad3d 2a20 c83d 9996 8a3d d53b ac39
000000b0: 6b02 b7bd d80f fbbd b293 903d f012 74bd
000000c0: b7ad 2fbd d9c9 b63d 8de6 c33d 0397 cabb
000000d0: d8fa de3d ed78 0ebb 1e56 853b 5a94 313d
000000e0: 6ae7 c7bd 3fc1 e6bd c490 d5bb ff35 c53d
000000f0: c933 b7bd a906 46bb 11eb 243d 4c99 003d
00000100: 9c8b f73d da63 c5bd d467 4a3d e488 23bd
00000110: 24ec 5cbd 98d7 aabd 40b3 953d a40e 453d
00000120: c0f7 e43b aef2 853d 00d0 fb38 c0fa 5ebd
00000130: c013 3bbb 008a 68bd 1ad5 c6bd 0ac2 d33d
00000140: 32a1 85bd ecc6 843d 303a a0bc e098 98bc
00000150: a83a dfbc b45a bc3d ecad 42bd dca1 60bd
00000160: 1870 943d 68f3 993c 36fe 873d 7405 293d
00000170: 98ae ed3d e478 db3d 6810 e5bc 3e29 89bd
00000180: 5696 f7bd 6ef8 bdbd 3c62 3abd 30d1 eabd
00000190: 98f4 8abc 0cf2 58bd d03d f1bc 40f8 29bc
000001a0: 482a b6bd 6402 28bd 4051 013c b899 43bd
000001b0: 1e08 d43d 0208 b73d 9e20 e43d ee11 b7bd
000001c0: 5c48 98bd 9082 ae3c 0ebb ff3d ac10 20bd
000001d0: 4099 fbbb 466e 9abd 4801 95bd d06a 213c
000001e0: 6203 ce3d 7c9f c0bd 80f8 ca3b 5e9a e43d
000001f0: f08e 3e3c 8867 913c 7e02 abbd e032 47bd
00000200: 4510 4bbd ebd8 b93d 6f7c 61bd d969 d7bd
00000210: 045f febd 3f18 9cbd 9c3b f2bc 86c4 d4bd
00000220: e23d 8dbd 6b7f d23c 8a8a cfbd b27a 63bb
00000230: 0d74 dc3d 3424 d93d e8ca dfbd bedc ec3d
00000240: 2329 0f3d 278e b53d 2d3e 783d 7a70 e23c
00000250: c500 ed3d 8228 54bd f96c 843d a25f 92bd
00000260: 53e9 a93d f069 abbc ea80 5b3d 22d4 ed3d
00000270: 60e3 9cbc ef85 90bd 7d71 dd3d 780d cebd
00000280: b452 623d 2c16 30bd b095 ed3d 7d5e ca3d
00000290: 5ea5 093c 6071 a7bd f330 743d 9c1f 6f3d
000002a0: 4bab 91bc e882 a2bd 6ca8 90bd a406 bebd
000002b0: 6cc8 49bd 98fc 243a 21b1 8dbc 6f18 bf3d
000002c0: 2be6 14bd c456 f53d 54e9 3a3d 8f0a c6bd
000002d0: 9e2f d33d 300b 903d 2de3 3e3d c7f5 cf3c
000002e0: 53d8 23bd 525b 82bd c54b a13c 0250 c8bd
000002f0: e604 59bd 6490 a9bc d402 fcbd 2f84 98bb
00000300: 5272 a53d 34b9 b4bd f86e 61bd b218 35bd
00000310: 0039 e8bc 1a98 dabd cf64 40ba b8e6 96bd
00000320: 91ea 253a f23b 35bd f461 8fbd 05d9 de3b
00000330: c7d2 c7bd c5cc 83bd 4420 e7bd 0739 3abd
00000340: 7a07 b43d ea0c 84bd 5294 093d fa3a 88bc
00000350: 5c46 0b3c 5cef acbd fb06 38bd 9010 7a3d
00000360: d2ab 9dbc 159b aebd d89e f0bd 2213 97bb
00000370: 8c29 adbd d91b 993d d6fc e8bd babc ccbd
00000380: 3fa1 ef3d b2e1 e4bd b077 d1bd ad3f c0bd
00000390: 51a7 983d 0aad 5abd c2db 1fbc 9c44 c03d
000003a0: 749b 883d f67c 48bd b161 20bd 532d ebbd
000003b0: 0e5b 9fbd 14a9 c73d 335f ab3d 9a78 ed3d
000003c0: c50e ffbd 9bee b9bd 591b d83d d6cd ba3d
000003d0: 7970 86bd a3be 7c3c 8158 ce3d d0f6 e5bd
000003e0: ed0f b5bd f0ca 5ebd 0cdd b0bd 8d82 ff3c
000003f0: e6eb 2ebb 5f5c 933d e96e 5f3c dfae 2d3d
-0.0055033593 0.119595975 -0.04659677 0.042242307 0.025167316 0.105955385 0.08286826 -0.05653125
-0.11437862 -0.08624114 -0.0593267 0.023783986 -0.034414582 0.013075337 0.10130057 -0.04212465
0.05503555 -0.09171392 -0.11629071 0.10000786 -0.095946245 -0.031888552 -0.08969731 0.11462389
0.03727676 0.11373956 0.12220381 -0.005989041 -0.07636926 0.08304706 -0.059293438 -0.09293176
-0.025106719 -0.066641696 0.11338463 0.05396357 0.011865872 -0.09799123 -0.11837036 0.07205476
0.0845916 0.0977176 0.067670055 0.00032850975 -0.08936008 -0.12258881 0.07059421 -0.059588373
-0.042890277 0.08925218 0.095654584 -0.006182553 0.108876884 -0.0021739558 0.004069104 0.04335437
-0.097609356 -0.112673275 -0.0065175015 0.096294396 -0.08945424 -0.0030216372 0.04026324 0.031396195
0.12087175 -0.09638186 0.049415424 -0.03992547 -0.05393614 -0.083419025 0.0730958 0.048109666
0.006987542 0.06540428 0.00012007356 -0.054438353 -0.0028545707 -0.056772232 -0.09708615 0.103397444
-0.06524886 0.06483254 -0.019558996 -0.018627584 -0.02724965 0.09196988 -0.047529146 -0.05484186
0.07247943 0.018792823 0.06640284 0.041264966 0.11605567 0.107164174 -0.027961925 -0.066973194
-0.12089221 -0.092759 -0.04550384 -0.114656806 -0.016962335 -0.05296521 -0.02944842 -0.010374129
-0.08894783 -0.041017905 0.007892907 -0.04775402 0.10353111 0.08937074 0.11139034 -0.08938967
-0.074356765 0.021302491 0.1248685 -0.0390784 -0.007678181 -0.07540564 -0.07275635 0.009852126
0.10059239 -0.09405419 0.0061941743 0.11162256 0.011630759 0.017749563 -0.08350085 -0.048632503
-0.049576063 0.09074577 -0.05505031 -0.10518236 -0.124204665 -0.07621812 -0.02956944 -0.10389046
-0.06896569 0.025695523 -0.10133846 -0.0034710583 0.107643224 0.10602608 -0.10927373 0.11565541
0.03495134 0.08865004 0.06060617 0.027641524 0.115724124 -0.051796444 0.064660974 -0.07147147
0.08296456 -0.020924538 0.05358974 0.11612727 -0.01915139 -0.07056796 0.10812662 -0.10061163
0.055254653 -0.042989895 0.11600816 0.098813035 0.008401243 -0.081759214 0.059616994 0.058379754
-0.017781874 -0.07935125 -0.07063374 -0.0927861 -0.049263403 0.0006293743 -0.017296376 0.09330832
-0.036352318 0.1197944 0.045632675 -0.09669983 0.10311817 0.07033384 0.04660337 0.02538575
-0.040001225 -0.06365074 0.01968945 -0.09780885 -0.052983187 -0.020698734 -0.12305227 -0.0046544294
0.080784455 -0.08824387 -0.05503747 -0.044213004 -0.028347492 -0.10673542 -0.00073392404 -0.07368225
0.00063292036 -0.04424662 -0.07001105 0.006800773 -0.097569995 -0.06435541 -0.11285451 -0.04546454
0.087904885 -0.06447776 0.033588715 -0.016629685 0.008500662 -0.08444092 -0.044928532 0.06105095
-0.01924697 -0.08525673 -0.11749047 -0.004610435 -0.0845519 0.07476015 -0.1137635 -0.09996934
0.11700677 -0.111758605 -0.10227907 -0.09387145 0.07453788 -0.05338768 -0.009756984 0.09388086
0.06670275 -0.048947297 -0.039155666 -0.11483254 -0.07781039 0.09749046 0.08367767 0.115952685
-0.12453989 -0.090787135 0.10552091 0.09121291 -0.06564421 0.015426311 0.100754745 -0.112287164
-0.08840928 -0.054392755 -0.08635911 0.031190181 -0.00266909 0.07195353 0.013637283 0.0424031

lstm.bias_hh_l0 f4 [256]
00000000: 602a 8bbc ada7 943c 475b 56bc e2e5 c2bd
00000010: 804a ebbc 875e d4bd 8123 363c 5dba bbbd
00000020: d1b7 e3bc 6251 aabd 52b9 383d 5ec5 dcbc
00000030: 6e96 b5bd 4855 d8bc 4050 fb3d 8a8d 13bd
00000040: d031 88bd 8e71 33bd 1dc2 3f3d 4da8 c5bc
00000050: eda9 5fbd c647 94bc f04e 56bd 054a 00bd
00000060: d461 3e3d 2d7f cfbc 3436 d1bd 24ff 573c
00000070: 45f0 c13d 1e6d e93d 0d6e 6abb eeab de3d
00000080: f9c4 b83d 26ad 963c bf1f 98bd a882 c6bd
00000090: 5016 243b e012 cdbd c387 ea3d 82ae bd3d
000000a0: d227 693d 565f f0bc 5e7c 2c3d acd1 f7bd
000000b0: f928 8bbd 5656 c4bd 9af1 ebbd fd01 003e
000000c0: 2b9a 74bd 557a 96bd 6396 9fbd 5189 a73d
000000d0: 9ec6 d63d fb88 cf3d a51f aabd 6d6f cb3c
000000e0: cb02 2dbd e5b7 82bd 6dec eabd 1c49 a2bb
000000f0: d145 d03d ff6f a9bd 0121 a63d ae23 bf3d
00000100: c0c1 b7bc 06c8 be3d 1c75 14bd c0ed 0fbd
00000110: c071 15bd 7669 963d 80d7 c8ba bccd 203d
00000120: 8827 a33d bcc7 323d 9ceb 73bd ec4d 173d
00000130: c0cc 3cbc 72be fc3d f611 8dbd 9c01 633d
00000140: 0088 33b9 9a70 f2bd e00c 1dbc c8c3 e83c
00000150: 2c28 b5bd 580b ea3d e863 11bd 4a76 e23d
00000160: 10ec 7fbd a83d a6bc 3a4c fc3d 0032 0abc
00000170: 182e 123d a0a3 6dbc ee6e 8a3d 4aa6 e9bd
00000180: 6ca0 3cbd 8091 2abd 5c7f 2abd 9a29 833d
00000190: 4630 9b3d 0017 18bc 8eff a43d 1424 d43d
000001a0: a8b9 063d 90ed ffbc 18f4 f8bc e81a d03c
000001b0: a8e0 e1bd f851 61bd a478 163d b81f f7bd
000001c0: e081 ce3b 004f b1bd 18c8 58bd f8fd a2bc
000001d0: 4858 05bd 6068 f4bc 44a8 fa3d 0c89 4e3d
000001e0: f6cf c4bd f630 a0bd be29 b6bd de19 febd
000001f0: 04b7 433d 1c65 5a3d 9882 13bd 7013 7ebd
00000200: cc1b ea3d b09b 103c f410 c63c eb64 b63d
00000210: c4e6 cfbd 30fa 32bd f057 7b3d 0afd 1fbd
00000220: 05ac 103d 477d 9bbd 9f1b 1a3d 5f28 9f3d
00000230: 84ff 933c e4d9 b9bd 197f 61bd c069 a8bd
00000240: 4d1f a0bd 79de b33d a2c7 46bc 7e9e 8cbd
00000250: b0a0 a73c ff49 37bb d909 eb3c 50dc 2e3b
00000260: 67aa a83d 303d 533d 1671 f33c 9662 17bd
00000270: 15ed b2bd f2b0 a7bb b458 3e3d ddd7 6e3d
00000280: 50d9 03bd 7452 5f3d a2a9 fbbc 43e6 b23d
00000290: b0d2 64bd 468f 8e3d 71d7 cfbd 77c6 bfbc
000002a0: 7f51 f33d b0bf abbd 216c 17bd 28ec dd3d
000002b0: 7ab1 c43d 5177 463d 2392 dd3d e752 b6bd
000002c0: 3cc8 713c 634e a33b 0c9a 2c3d edf4 b7bd
000002d0: 899f e93c 1bf9 71bd 9bbe 2bbd 2506 f13d
000002e0: 6ac6 883d be58 c83c 68c1 353d 24e3 a1bd
000002f0: 27fa b7bd c542 8fbd f889 7abd 7238 23bd
00000300: 964b 88bd efe2 ba3c a999 d0bc affb d33d
00000310: 6054 05bc bc21 70bd d6df c43d da09 4fbc
00000320: d844 e3bd afac a6bd 0a89 c13c e3e9 e4bd
00000330: fd51 6c3d a54c c53d 1e64 ddbd 7b2e 7bbd
00000340: 1369 ac3c df61 1bbd 0b89 afbd 074a 90bd
00000350: d810 413d be94 c53d e22e d73d 28c0 7cbd
00000360: 157c 983b f130 64bd d011 5bbd feea 913b
00000370: 0ef8 c9bd f9ef 8fbd 78b6 bd3c 6cdd c73d
00000380: 902f 7f3d 65dd 1b3b fa46 f73c 991f 21bd
00000390: 3fa8 ef3d cbde d5bd 9129 5dbd 0372 2c3d
000003a0: 9eaa db3d 0e2b 4abd ea3a e73d 940d 143d
000003b0: 76d6 da3d e5d8 45bc ed15 7a3d ed4f 233c
000003c0: 0dc1 a43d c998 9d3d 6b41 9e3d 3f28 b53c
000003d0: 971e b8bd d1b4 963d ed46 b9bd 6ee6 863d
000003e0: cd8d d9bd 8444 2ebd a213 c3bd f03b 533d
000003f0: fcde 9fbd 6086 5abd 05c7 8abd 5910 58bd
-0.01698798 0.01814636 -0.013083286 -0.09516503 -0.028722048 -0.10369592 0.011116863 -0.09166405
-0.027797611 -0.08316304 0.04509861 -0.02694958 -0.08866583 -0.026407853 0.12271166 -0.036023654
-0.06650126 -0.043809466 0.04681598 -0.024128104 -0.054605413 -0.01810063 -0.052321374 -0.03132059
0.046480015 -0.025329197 -0.102154166 0.013183389 0.09469656 0.113977656 -0.0035771162 0.10872637
0.090219446 0.01839311 -0.0742793 -0.096928895 0.0025037713 -0.10013366 0.11451676 0.092618
0.05692274 -0.029342335 0.042110793 -0.121005386 -0.06794924 -0.0958678 -0.11520691 0.12500758
-0.05971734 -0.07347552 -0.07792356 0.08180488 0.10487102 0.10133549 -0.08306817 0.024833405
-0.04223899 -0.06382731 -0.11470876 -0.004952563 0.101695664 -0.08273315 0.08111764 0.09332977
-0.022431254 0.09315495 -0.036244497 -0.035138845 -0.036485434 0.07344334 -0.0015323013 0.039258704
0.07966524 0.043647513 -0.059550866 0.036939546 -0.011523426 0.12341012 -0.068881914 0.055421457
-0.00017121434 -0.11837883 -0.009585589 0.028413668 -0.08845553 0.11427945 -0.03549567 0.11057718
-0.062480986 -0.020293072 0.123192266 -0.0084347725 0.03568849 -0.014504343 0.067594394 -0.1140867
-0.046051428 -0.041642666 -0.041625366 0.06404419 0.07577567 -0.009282827 0.08056556 0.10358444
0.0328919 -0.031241208 -0.03038983 0.025403455 -0.11029178 -0.055009812 0.036736146 -0.12066597
0.0063021034 -0.08657646 -0.0529252 -0.019896492 -0.032554895 -0.029834926 0.12239125 0.050423667
-0.09609978 -0.078218386 -0.088946804 -0.124072775 0.04778196 0.05331908 -0.036013216 -0.062030256
0.11431083 0.008826181 0.024178006 0.08905967 -0.10151437 -0.04369563 0.06136316 -0.039059676
0.0353203 -0.07592254 0.037623998 0.07771372 0.018066175 -0.090747625 -0.05505285 -0.08223295
-0.0781847 0.08782668 -0.012132557 -0.068661675 0.020462364 -0.002796769 0.02869122 0.002668161
0.08235627 0.051572025 0.02971701 -0.036959253 -0.08736626 -0.005117529 0.046471313 0.058311332
-0.032189667 0.054521993 -0.030720536 0.08735325 -0.05586499 0.06960921 -0.10148514 -0.023410065
0.118807785 -0.08386171 -0.036968354 0.10836059 0.096041635 0.048453633 0.10818889 -0.08902531
0.014757212 0.0049837097 0.042139098 -0.08982263 0.028518455 -0.059075456 -0.041929822 0.1176875
0.066784695 0.024456378 0.0443739 -0.07904652 -0.0898326 -0.06995157 -0.061166734 -0.039848752
-0.06655042 0.022813288 -0.025463896 0.10350739 -0.008137792 -0.05862592 0.09613006 -0.012636626
-0.11097115 -0.081384055 0.023624916 -0.11177423 0.057695378 0.096337594 -0.108101115 -0.061323624
0.021046197 -0.037935134 -0.08571061 -0.070453696 0.047135204 0.09647511 0.10506989 -0.061706692
0.0046534636 -0.055710737 -0.053483784 0.004453062 -0.09861766 -0.07028193 0.023158297 0.0975903
0.06230122 0.0023783084 0.030185211 -0.039336774 0.11702012 -0.10442885 -0.05399472 0.042100918
0.10725902 -0.049357466 0.11290534 0.03614576 0.106854364 -0.0120756375 0.061056066 0.009967786
0.08044634 0.07695157 0.07727321 0.022113917 -0.089902095 0.07358707 -0.09046731 0.0658692
-0.106227495 -0.04254581 -0.09525229 0.051570833 -0.07806203 -0.053350806 -0.06776241 -0.052749965

lstm.weight_ih_l0_reverse f4 [256, 20]
00000000: 8ac6 1bbd efdd 43bd ba82 d43d 07c5 243d
00000010: 321d a8bc 64a9 3a3d e966 eb3d 6eec d1bd
00000020: 3d45 5abd 0d53 98bc e0b7 f13b 64da 323d
00000030: 658e a23c ed9a 933b 745e e0bd 77aa 87bd
00000040: d578 d33d dc3f 8d3d d49b 003c ba2e 3fbd
00000050: 87e2 67bd f6e5 92bd 7421 843d 3a4b c93d
00000060: 2ae8 f43d f513 223d fea9 3cbd fb47 babd
00000070: e29f ad3d 192b 923d 0186 e03d e965 7fbd
00000080: dd04 b33d 131d b13d 8a18 eabd ffcc c2b9
00000090: 9036 0cbc 3e59 00bc 83e1 bcbd 4beb c0bd
000000a0: 21c9 c8bd ff44 2e3d d6ea b13c 0c5f f7bd
000000b0: d826 e3bd df77 ae3d 7ea9 6ebc 57b2 32ba
000000c0: 8491 df3d 5fa8 943d 4941 903d 1c5d 9d3d
000000d0: 407b 283d fa75 453d 3f9d 863d f0e6 79bd
000000e0: a882 d2bd 3bf2 f3bd 7fa0 febd cc8e 653c
000000f0: 9cd2 e2bd 6c52 fa3d 4b80 323c cb28 c73d
00000100: 962f c63c e8cc a33d bfea e93c e017 9f3d
00000110: 6224 d63d 4468 ab3d b89e 64bd 05a5 82bd
00000120: d38f a03d 3a61 8d3d 5a46 5e3d d93b 5b3c
00000130: d371 77bd 1cb6 19bc 65e8 5e3c fe38 fc3d
00000140: a06f d1bc d117 fbbc 9490 c1bd 3de5 d93c
00000150: 40f7 2dbd 0075 dcbd 9a30 0cbd 9402 89bc
00000160: 5bf0 b6bc 9210 ddbd dfaf c03d f19c febd
00000170: 910f 38bd 5d15 883d 909f 7cbc b957 bfbc
00000180: a32c 153d 19e5 873d 37a5 903c d8f0 23bd
00000190: 7e8d d6bc 0268 bd3d 6778 8cbd de1a 343d
000001a0: 427b 883d b809 953d 199a e73c ded3 c73d
000001b0: ce78 67bd 9b29 833b 6cf4 c63c ce9f aa3c
000001c0: 913c 03bd e1ec 99bd 34d8 66bd 5c4a dd3b
000001d0: eb6e 3c3c 2aa9 d6bd 0c49 b5bd 765c 6a3d
000001e0: 8b15 f7bd 5b33 1cbc 6637 833d 5e87 173d
000001f0: c5db 9f3b 4912 903c 6439 c43d 4e5b c43c
00000200: 5641 12bd 6bac d43c bbae a13c c290 83bd
00000210: d637 b33b 37db dd3a 2af4 ca3d 6ce1 b43d
00000220: de68 ed3d 8707 d5bd 2fba 94bd 5bc6 ddbd
00000230: 23a2 fabd 398a ebbd 0826 54bd 27d1 643c
00000240: 37e1 b73d eb6f f73d 51a0 573d 1f4c 883d
00000250: a4e2 ff3d 6449 4a3d e999 52bd af19 8c3d
00000260: 283b e13d 3c4f 3abd 8ed3 f73d 892f afbc
00000270: ae86 cd3d 0e2e b13d 00b9 fcbd edf5 c53d
00000280: 5eda 103d 1394 a8bd ee17 4f3c 63f3 a2bd
00000290: 9224 7cbd 998b f43d f0a2 50bd 745d efbd
000002a0: 5a16 063b c894 52bd ec78 033c 2a87 40bd
000002b0: 98b6 fa3d 2c1f 813d f352 7ebd 66a4 96bc
000002c0: 3e5c bd3d 70b0 38bd 4f06 143d 1f2c 5c3d
000002d0: 36dd 96bd c654 c6bd e61e 07bd c4ad 8dbd
000002e0: 6487 b13d 538a f43d 0bac ca3c 8069 24bd
000002f0: 9d71 803d cd4b ef3d 449b febd b281 e4bd
00000300: 32be b4bd 9cfe 5f3d cfec 343d e046 27bd
00000310: 682f a73d 431a dc3d 2e01 f0bb 1285 5fbd
00000320: 4991 33bd 1459 b93d 28b6 b6bd 9da7 c5bd
00000330: bcaf d3bd 170b 163d 3852 833d 7124 ff3d
00000340: 2993 dbbc 580d c1bd 30c9 913d bd5a 0e3b
00000350: 9889 f53c fade e83c 5b56 c3bd bcf8 b53c
00000360: 2849 9fbd 80a2 e4bd 7abc d23d 4baf 49bc
00000370: 7c43 c63d 264e d6bd 0428 c83c 82af 5bbd
00000380: a522 ad3d 895e 0cbd 18d7 c43d cf39 aa3d
00000390: f731 843d 96ce c63d b233 843c 3b8b cabd
000003a0: 582d dbbd b3e3 763d b15e bbbd cd25 8bbd
000003b0: b9b1 3c3d 4c39 b13d 8b0c 00bd a0e3 053c
000003c0: e19a 37bd b3be 2ebd d5fe 8a3d bc7e b33d
000003d0: 4c53 413d 7582 af3d e41e f4bd 72cc a43d
000003e0: e574 1e3d ccf4 8abd 74fc d53d 7b32 46bd
000003f0: 0ada fabd 9b72 903d 0c86 763d 74ff b93a
-0.03803114 -0.047819074 0.103764966 0.040226962 -0.020521734 0.0455717 0.11494238 -0.102501735
-0.053288687 -0.01859429 0.007376656 0.043665305 0.01984329 0.0045045526 -0.109555155 -0.066243105
0.10325781 0.06896946 0.007849652 -0.04667542 -0.056612518 -0.07172768 0.06451693 0.098288015
0.11958344 0.039569814 -0.046060555 -0.090957604 0.08477761 0.071371265 0.10963059 -0.06235305
0.08741162 0.086481236 -0.11430462 -0.00037155297 -0.008557931 -0.007833777 -0.092227004 -0.094198786
-0.09803987 0.04254627 0.021718424 -0.12078676 -0.11091393 0.08518957 -0.014566777 -0.0006816736
0.10916427 0.07258677 0.07043702 0.07683775 0.041133165 0.048208214 0.06572961 -0.061011255
-0.10278827 -0.11911436 -0.12432956 0.014011096 -0.11075327 0.12222752 0.010894845 0.097245775
0.024192613 0.07998067 0.028554318 0.07768226 0.10456158 0.083694965 -0.05581543 -0.06379131
0.07839932 0.0690331 0.05426631 0.013380968 -0.060411286 -0.009381797 0.013605212 0.12315558
-0.025565922 -0.030651005 -0.09451404 0.026598567 -0.042472124 -0.107645035 -0.034226038 -0.016724862
-0.022331407 -0.10794176 0.09408545 -0.12432278 -0.04493672 0.066447 -0.015418902 -0.02335726
0.036419522 0.06635494 0.017656906 -0.04002461 -0.026190516 0.092483535 -0.068589024 0.043970935
0.066641346 0.07277244 0.028271722 0.09757207 -0.056511693 0.0040027625 0.024286471 0.020828154
-0.032040183 -0.07515884 -0.05635853 0.006753249 0.011501054 -0.10481484 -0.08851823 0.057217084
-0.12064656 -0.0095337285 0.06407051 0.03699433 0.0048784935 0.017586844 0.09581259 0.023969319
-0.03570684 0.025961122 0.019736638 -0.06424095 0.0054693026 0.0016926293 0.09909852 0.08832058
0.115922675 -0.10401826 -0.07262074 -0.10828849 -0.122379564 -0.11500973 -0.051794082 0.013965881
0.08978503 0.120818935 0.052643124 0.06655144 0.124944 0.049386397 -0.05141631 0.06840836
0.10997611 -0.04548572 0.12100898 -0.021384971 0.10035454 0.08651362 -0.123399734 0.09666047
0.0353645 -0.08231368 0.012639983 -0.079565786 -0.061558314 0.11940689 -0.05093664 -0.11687747
0.00204601 -0.05141142 0.0080244355 -0.047003902 0.12241858 0.06304774 -0.062090825 -0.018388938
0.092461094 -0.04509014 0.03613883 0.053753015 -0.073664114 -0.09684138 -0.03298845 -0.06917909
0.08668402 0.11940446 0.02474024 -0.040139675 0.0627167 0.1168438 -0.12431958 -0.1115755
-0.088253394 0.054686174 0.04417115 -0.040839076 0.08163339 0.107471965 -0.0073243594 -0.054570265
-0.043839727 0.090501934 -0.08921462 -0.0965111 -0.10336253 0.03663167 0.06412166 0.124581225
-0.02680357 -0.09426373 0.071184516 0.0021721565 0.029972836 0.028426636 -0.095379554 0.022213332
-0.07777625 -0.11163807 0.10289855 -0.0123098595 0.096808404 -0.104641244 0.024433143 -0.053634174
0.084538735 -0.034269843 0.096113384 0.08311807 0.064548425 0.09707372 0.016137931 -0.09889837
-0.10702008 0.060275745 -0.0914892 -0.06794319 0.046067927 0.08653507 -0.031261962 0.008171946
-0.04482544 -0.042662334 0.067868866 0.08764407 0.04719858 0.085698046 -0.119199544 0.08046807
0.038685698 -0.067849725 0.10448542 -0.048387986 -0.12248619 0.07053109 0.06018643 0.0014190511

lstm.weight_hh_l0_reverse f4 [256, 64]
00000000: 2402 53bd 80b1 043b 009a 823d 884e abbc
00000010: c873 053d c04a ef3c 0cc9 77bd 1a9b a4bd
00000020: 2828 203d a0ba c7bc 7441 413d 685b 953d
00000030: 0279 8abd f8d1 1b3d d012 d2bd 588c 883d
00000040: 2428 f93d c61b b1bd c805 b83c b283 b73d
00000050: 84bc e83d 88f7 ea3c b691 a43d be44 dbbd
00000060: a8a0 92bc 1694 c4bd 34a7 823d 98b8 ad3d
00000070: 7c4d 7c3d c6fd ee3d 0897 d03d 3498 f8bd
00000080: 84be f73d 40da 07bc f68a dd3d 0ef1 9e3d
00000090: 00c7 2e3d e84b 8f3d ee67 d6bd e098 753d
000000a0: e825 eb3d 6636 f63d 18a2 793d deda e6bd
000000b0: 8470 a9bd 1c86 60bd 84f6 233d 10d6 1abd
000000c0: bce5 cb3d f03c 70bd f49d c53d 683d 8b3c
000000d0: b6de d8bd 7aca cf3d d234 e13d a4b2 bb3d
000000e0: c4a8 38bd 4c33 1ebd 4cad 02bd 6091 d83c
000000f0: 84b8 c5bd 700d 62bc faa3 cb3d 5aac 88bd
00000100: f0a1 413d 8a97 91bd 003c 463b 6883 5cbd
00000110: 6c5e 2e3d 1c0b 08bd c8e8 3b3d 1ef6 9dbd
00000120: fe63 bbbd a426 33bd 3092 8c3c ee06 c23d
00000130: 4812 aebd e8c5 ce3c 0899 c3bd 9009 1ebc
00000140: bc00 7f3d 80ca 8f3a a0d9 523c 3a30 f8bd
00000150: e05a 79bd 3ef2 973d 782b ff3c 40d7 a23c
00000160: c0c5 3a3b 305f 98bc ca06 bf3d 00a0 1bb8
00000170: bc37 ad3d 0c7e e7bd dccf ddbd 24de 62bd
00000180: c4e2 e83d 4a35 bcbd 04d3 833d a0d0 213c
00000190: 30b4 4abd 4e4e eabd 1886 bebd f8c7 973c
000001a0: 3ce0 fd3d 6cd4 01bd 2244 db3d 523f 96bd
000001b0: a430 30bd e053 93bc 329d d4bd 307a 933c
000001c0: 18ed d9bd a06a 38bd 544e 063d 30b4 493c
000001d0: 3850 c6bc 985d 8b3d 64a7 febd b0be c93d
000001e0: f41d e6bd 4416 8fbd 2cd8 0a3d e430 3fbd
000001f0: 48ce 533d 560b b83d 8017 86ba b01f 9a3c
00000200: 5446 55bd 80c3 f13b 9a19 a8bd 10ca 0c3d
00000210: 74f2 06bd 986a ba3d ec34 92bd 6027 a63b
00000220: 987e 7a3d f878 8abc 7cb7 09bd 782a cfbd
00000230: 8815 eb3d a011 b53c de66 d23d 4080 0cbc
00000240: c050 6e3c 74c5 1abd f47d 64bd c855 8b3c
00000250: 60f7 debd f895 db3d 0411 d13d 24ed c5bd
00000260: 92c0 d9bd 786d 1bbd a0bc 5e3d e8ff fdbd
00000270: f807 083d e476 013d cc11 44bd 742e 873d
00000280: 000f b03c b67b d33d c8a7 cd3d bc77 723d
00000290: a057 d03b 28ee f93c 482e 573d a4fe 8e3d
000002a0: 3497 3c3d a268 82bd d4cf 5fbd c8a3 abbc
000002b0: 50f3 253d 6469 1cbd 5c3f c93d 1ce8 08bd
000002c0: 1e21 c0bd 206e 773d 94ed a03d 68f7 2d3d
000002d0: dc48 043d a0e7 d33b f804 54bd 0ad4 cbbd
000002e0: a897 04bd 3235 e7bd 2e08 dd3d a6da 893d
000002f0: 1c66 943d ccec 73bd 8ca3 dcbd 2035 fd3c
00000300: 9c85 bb3d 805a 7bbd 7005 fa3c dc1b 233d
00000310: 0002 edbd 0018 adbc 4878 903c d8b4 f53d
00000320: e0e8 873d f81c cebc 4413 3d3d 443a 433d
00000330: b401 f3bd 002e cabc d846 ffbd 5a59 f4bd
00000340: b483 713d b4ac 51bd 8a9d 8fbd a804 643d
00000350: 90f9 093d 80a0 7bbc 0ee9 fd3d fcb9 673d
00000360: 20ce a8bd 7cfc fe3d f0be c2bc c0a3 c1bb
00000370: 1482 593d d096 d83c 0af0 8cbd fc1b 183d
00000380: 5825 eebd 385c 32bd 20b6 dfbc 3049 a73d
00000390: 2e3c 973d 80e3 b2bb 78f8 b9bd 88f6 4b3d
000003a0: 20cf 97bd ce45 c03d 80af 99bd e8b6 d53c
000003b0: 74d8 9abd e0e1 e3bc 689a e5bd 8c4e 8cbd
000003c0: de59 e6bd 7a81 e0bd c414 8f3d 1aba a63d
000003d0: f826 c8bd 7289 c43d dc83 003d 36d5 da3d
000003e0: 5ed8 c63d a4a1 dc3d 76ed f53d aef2 b13d
000003f0: 60fb 073c 265d b1bd 409e c7bb 9260 8b3d
-0.051515713 0.00202474 0.063770294 -0.02091147 0.03258112 0.029210448 -0.060494468 -0.08037396
0.039100796 -0.024380982 0.04718156 0.07292825 -0.06761362 0.03804204 -0.102574944 0.066673934
0.12165859 -0.086478755 0.022463694 0.08960666 0.113640815 0.028682485 0.08035605 -0.10706471
-0.017898872 -0.09598558 0.06379548 0.08482474 0.061597332 0.11669497 0.10185057 -0.121384054
0.12096885 -0.008291781 0.1081752 0.07760821 0.04267025 0.069969 -0.10469042 0.059960246
0.114818394 0.120220944 0.0609456 -0.11272214 -0.08273414 -0.054815397 0.040030017 -0.037801802
0.09955928 -0.058651865 0.09649268 0.016997054 -0.10589354 0.10146041 0.10996403 0.09164932
-0.045082822 -0.03862314 -0.03190355 0.026436508 -0.09654334 -0.013797149 0.099433854 -0.066734985
0.047273576 -0.07108982 0.0030248165 -0.053836256 0.042570516 -0.03321372 0.045876294 -0.07712959
-0.09149931 -0.043738022 0.017159551 0.09473978 -0.084995806 0.025240853 -0.09550673 -0.009645835
0.06225656 0.0010970384 0.012869269 -0.121185735 -0.06087768 0.07419251 0.031148657 0.01987803
0.0028499216 -0.018600076 0.09327467 -3.710389e-05 0.08457896 -0.113033384 -0.10830662 -0.05538763
0.11371377 -0.091898516 0.064367324 0.0098764 -0.049488246 -0.11440717 -0.0930292 0.01852797
0.12396285 -0.031696722 0.10706355 -0.07336296 -0.043015137 -0.01798433 -0.10381545 0.0180026
-0.10640925 -0.04502356 0.032789543 0.012311026 -0.024208173 0.06804961 -0.12434271 0.09850824
-0.11236182 -0.06986669 0.033897564 -0.046677485 0.051710397 0.08986537 -0.0010230392 0.018813938
-0.052069023 0.0073780417 -0.08208008 0.03437239 -0.032946065 0.091023624 -0.07139 0.005070612
0.061155885 -0.016903386 -0.03362225 -0.10115522 0.11478716 0.02210313 0.102735266 -0.008575499
0.0145456195 -0.037785962 -0.05578418 0.017008677 -0.10887027 0.10721964 0.102083236 -0.096643716
-0.10632433 -0.037946194 0.054379106 -0.12402326 0.033210725 0.031607524 -0.047868535 0.06600657
0.021491528 0.1032633 0.10041767 0.05919622 0.006358102 0.03050907 0.05253437 0.069821626
0.046042636 -0.063676134 -0.05464156 -0.02095212 0.040515244 -0.038186446 0.09826538 -0.03342448
-0.093813166 0.060407758 0.078578144 0.042472273 0.032296047 0.006466821 -0.05176255 -0.099525526
-0.032371193 -0.11289443 0.10792576 0.06731157 0.07246038 -0.059552 -0.107733816 0.030909121
0.09156343 -0.061365604 0.03052017 0.03982149 -0.11572647 -0.021129608 0.01763548 0.11997384
0.06636214 -0.025160298 0.04616095 0.04766299 -0.11865559 -0.024680138 -0.12464684 -0.11931105
0.058963493 -0.051190093 -0.0701247 0.055668503 0.033685267 -0.01535809 0.12397967 0.056573853
-0.0824244 0.12450501 -0.023772687 -0.005909413 0.053102568 0.0264391 -0.06881721 0.037136063
-0.116282165 -0.043544978 -0.027308524 0.08168256 0.07384525 -0.005459249 -0.09080595 0.049795657
-0.07412553 0.09388314 -0.07504177 0.026088193 -0.075608164 -0.027817667 -0.11211091 -0.06850919
-0.112476096 -0.10962196 0.069863826 0.08140965 -0.09773058 0.09596528 0.03137575 0.10685198
0.097092375 0.10773018 0.12008183 0.086888656 0.008299679 -0.08660345 -0.006091863 0.06805529

lstm.bias_ih_l0_reverse f4 [256]
00000000: ecf6 e2bd a744 c4bc 161e d53c 75b2 b43d
00000010: d179 e3bd 7d24 82bd 9aa0 6f3d 2d9a fdbc
00000020: 3967 5fbc 3258 33bd 5461 6fbd 8283 7a3d
00000030: 2229 f0bd bac1 1d3c 1042 e5bd 532c 8ebd
00000040: f9e6 55bd 19f7 8c3d f05a 55bd 0a3b 583c
00000050: ac16 c03d bbad 6c3d 084d 503d 1f5e 1dbc
00000060: b784 94bd af70 bf3c b1ba 9a3d f37c ecbd
00000070: 08a8 de3d 80d8 d53d 0c3b f1bd 6b34 bc3d
00000080: 3fca 32bd c6aa 3ebd d554 593c 3dac 193d
00000090: f47e 4cbc 4e55 4ebd a43d 6d3c 3da0 0d3c
000000a0: f268 e6bc 5bf7 1bbc 56ef b2bd 4718 603d
000000b0: 53d1 8d3d b777 7dbd e9f0 9b3d 4589 70bd
000000c0: 34c6 a7bd 6a28 cf3c 8045 1c3d e61d 923d
000000d0: d8de 87bc 8729 bb3d 26ef b1bd de51 e6bd
000000e0: a1a5 b93d 4f7d f03d 20f6 47bd 2867 fa3d
000000f0: 4c92 1c3a a543 543d b8af d13d 8898 4e3d
00000100: 00a3 493c 54a3 e6bd 0057 18bb 18fa 28bd
00000110: 84cb 0a3d c8ff 82bd b8c5 e3bd 94de cfbd
00000120: 94bf 9fbd a8c7 fe3d 8057 503c 982a 2c3d
00000130: fc2e c2bd e828 9cbd 5ee4 ae3d 249e b5bd
00000140: a8cc b13c a07b b2bd 1422 74bd d874 bc3c
00000150: 88cf 813d fa3c c63d e091 503c 54cd 9d3d
00000160: 8aa9 8b3d b036 d83c 1ed3 e13d 0404 0f3d
00000170: 949a fd3d 2813 c23d 9020 2e3c 947e b43d
00000180: b8e8 253d 20c0 c8bc 448c c23d 4020 66bb
00000190: 0ae8 b43d d6fd b8bd ac14 31bd e8e2 7b3d
000001a0: 320e c2bd 742b 24bd c034 e93b 8ada 9a3d
000001b0: 1c2b 1e3d 1039 0b3d c6fb a6bd 807b a13c
000001c0: 4811 e4bc 789e 07bd 804a eeba c4e0 3abd
000001d0: c83e 91bd bccc 2a3d f20a f43d 0e94 b8bd
000001e0: 841b 8b3d 50fe 8fbd 8e7a c1bd 40b4 7bbd
000001f0: 9c36 0ebd 6039 703c e0ba 893b e059 7dbd
00000200: 7a29 6f3d c003 70bd 7127 0e3d 869f 86bd
00000210: 3ca6 5c3c 0216 9cbd 1aea 8e3c 3611 7ebd
00000220: 9a3d 973d c9a0 083d 5acc f1bc eabe e93c
00000230: af97 163d 006a c2bd c304 e33c 79c5 9abd
00000240: 48f6 e6bd a4fb 40bd 385d b53c 7a49 7d3d
00000250: d1a4 6cbd cedb a9bd 8031 f73d 392c 4e3d
00000260: 9874 9a3d f437 393b 8187 a9bd 43fc 52b9
00000270: 7749 f73d 7c33 b0bd d42f 5a3d c4c4 a13d
00000280: 8c7f fb3d 72cf 5b3d f68e aa3d 809d f1bc
00000290: 9988 433b e8e7 fa3d a639 9b3d feed f4bd
000002a0: 987d 9f3d 34f6 52bd fc7a 36bd 88bc a03c
000002b0: d87c e3bd b900 90bb bc0e 8d3d 7b04 69bd
000002c0: a100 6abd 4bb0 7e3d 4f43 273d 98eb 1f3d
000002d0: e26b 0bb9 9e86 9dbd 22ae 8cbd f0b5 b0bd
000002e0: d56c e7bd fca8 c03d 36a4 babd 1f37 9c3c
000002f0: 591c 6ebc 59d4 983d b274 ef3d a411 ad3d
00000300: 53a5 babd 1074 b33d 92c6 b53d 8867 97bd
00000310: e4b1 973c ca25 653d 9062 eb3d 197c ee3d
00000320: 01b1 c53d 5a59 373c 83e6 083d 44da 883d
00000330: 9a78 a5bd dffd 9cbd 3cfc b1bd 1a9f a2bd
00000340: 926a 30ba 01ad e73d 1a08 17bd 79bd 663d
00000350: 0a68 d33d 82ee 1f3d 88f7 443d 1275 8ebd
00000360: d524 8a3d 4ffd e6bc fecc 083d d4e9 c93c
00000370: 29c6 ecbd bc7a 3d3d 0e63 f5bd a279 f2bd
00000380: e1b0 d53c dc2e 5c3d 7891 a7bd e496 50bd
00000390: 8922 b03d 6e32 b53d 3d37 f5bd 5afc bbbc
000003a0: 8b6e 633d e2fc f5bd b36d 943c b879 e6bd
000003b0: 715a 58bc 5ed1 e5bd 4e27 60bd 51aa 063d
000003c0: a17e 5fbd 17e3 fabc 0d2d 793c 1e40 fa3d
000003d0: 1173 ac3c 16b9 43bd 5903 f3bd 1727 6c3d
000003e0: 02b9 a8bd 8443 033c ab43 debd 622f e63b
000003f0: 51dc 57bd 78a6 e43d 8ef3 d3bd 94b9 f63d
-0.11082253 -0.023958517 0.026015323 0.088231005 -0.11107219 -0.06354616 0.05850277 -0.030957306
-0.01363545 -0.04378528 -0.05844243 0.061160572 -0.117265955 0.009628708 -0.11194241 -0.06942048
-0.052222226 0.06883068 -0.052088678 0.01319767 0.09379324 0.05778287 0.050854713 -0.00960496
-0.07251876 0.023369161 0.0755514 -0.1154727 0.10871893 0.10441685 -0.117788404 0.091896854
-0.04364991 -0.04654958 0.013264854 0.037517775 -0.01248144 -0.05037432 0.014480028 0.008644161
-0.028126214 -0.009519423 -0.08737056 0.054710653 0.06924691 -0.061881747 0.07614309 -0.05872466
-0.08192101 0.025287826 0.038152218 0.07134609 -0.016585752 0.0913878 -0.08688192 -0.11246084
0.09064794 0.11742651 -0.048818707 0.12226707 0.00059727277 0.051822323 0.10238594 0.050438434
0.012306929 -0.11261621 -0.0023245215 -0.041254133 0.033885494 -0.06396443 -0.11121696 -0.10149875
-0.078002125 0.12440425 0.012716174 0.042032808 -0.09481618 -0.0762499 0.08539651 -0.088680536
0.021704033 -0.08714986 -0.059602812 0.023004934 0.063384116 0.09679599 0.012730092 0.07705179
0.068194464 0.026393265 0.110265955 0.03491594 0.12382999 0.0947631 0.010627881 0.08813205
0.04050514 -0.024505675 0.0949941 -0.0035114437 0.088333204 -0.0903279 -0.043232605 0.06149569
-0.09475364 -0.040080503 0.007116884 0.07561214 0.03861533 0.033989966 -0.08153491 0.01971221
-0.027840272 -0.033110112 -0.0018180162 -0.04562451 -0.07092053 0.041699156 0.1191615 -0.09012614
0.067923576 -0.07030928 -0.094472036 -0.061451197 -0.03472005 0.014662117 0.0042031854 -0.06185329
0.058389165 -0.058597326 0.034705583 -0.065733954 0.013467368 -0.07621385 0.017445613 -0.062028132
0.073847964 0.03335646 -0.029516388 0.028533418 0.03676575 -0.09492874 0.027712232 -0.07557196
-0.11277443 -0.047114983 0.022139177 0.06183765 -0.05777437 -0.082938775 0.12069988 0.050335143
0.0754177 0.002826211 -0.082777984 -0.00020121135 0.12074559 -0.0860357 0.05326827 0.07898858
0.12280187 0.053664632 0.08328049 -0.029494047 0.0029836057 0.12251264 0.07579355 -0.11959456
0.07787627 -0.05150433 -0.04455088 0.019621149 -0.111077964 -0.0043946174 0.06887576 -0.05688904
-0.057129506 0.062179845 0.040835675 0.03904304 -0.00013296262 -0.07691692 -0.06869151 -0.08628452
-0.11300055 0.09407231 -0.09113352 0.019069253 -0.014533126 0.07462377 0.1169218 0.0845063
-0.09113564 0.087623715 0.08875765 -0.07392794 0.018517442 0.05594424 0.11493409 0.116447635
0.096529014 0.011190737 0.033422958 0.06682256 -0.080796435 -0.076656096 -0.08690688 -0.079405025
-0.00067297474 0.11312295 -0.03687296 0.05633304 0.10322578 0.03904582 0.048087627 -0.06955923
0.067453064 -0.028196959 0.03339862 0.02464763 -0.115612336 0.046259627 -0.11981784 -0.11839606
0.026085319 0.053755626 -0.08182043 -0.05092515 0.08600337 0.08847509 -0.119734265 -0.022947479
0.055525344 -0.12011124 0.018118715 -0.11253685 -0.013205157 -0.11221574 -0.054724984 0.03287727
-0.054564122 -0.030625863 0.015208495 0.12219261 0.021050962 -0.047783934 -0.11865873 0.057654466
-0.082384124 0.008011702 -0.108527504 0.0070246914 -0.052700344 0.11164564 -0.10349189 0.12047115
