models/encoder.pt (torch, 84873 bytes, 10 tensors)

lstm.weight_ih_l0 f4 [80, 100]
0.22294907 0.013645617 -0.0706922 -0.12591277 0.2047478 0.13247557 0.101808995 -0.05128497
-0.06823988 -0.105402105 -0.17485692 -0.08942501 -0.0052786525 -0.13267028 -0.22151156 0.18734731
0.09558277 -0.14748535 -0.11078052 0.046168298 -0.07203479 -0.0671982 -0.14325985 0.13557875
0.114318274 0.08664403 0.056583844 -0.028111333 0.2036725 0.041364722 -0.10926133 -0.21661368
-0.108627774 0.12860303 -0.022426134 0.015664054 -0.018941758 0.20276003 0.17803429 -0.18406671
0.12803444 0.048468374 0.1063225 -0.072184406 0.1593518 0.13646893 -0.13629155 0.11519149
-0.07179745 0.096676916 0.10643973 -0.038525444 0.11229849 0.20063753 -0.111386895 0.0880889
0.12325551 0.031588107 -0.13639182 0.1211926 -0.13218881 0.054331575 -0.17943308 -0.08678216
-0.020375948 0.047900066 0.045281757 0.155316 -0.20534483 -0.1740259 -0.0075716036 0.11606927
0.21578753 -0.11186351 -0.012519948 0.123481244 -0.15883467 0.01146271 -0.14994283 -0.03692045
0.20083892 0.15496023 0.18027517 0.156883 -0.097314864 -0.004952617 -0.08888419 0.06282602
-0.22351934 -0.0546845 -0.16145802 0.20804498 -0.045888133 -0.021739101 -0.14627427 -0.19834627
-0.040680315 0.15715054 0.14721054 -0.20543404 0.12911057 0.17989704 0.12995127 0.117995046
-0.109368816 0.0697726 -0.15229611 0.08510239 -0.06894939 0.010319173 0.15321685 0.027842538
0.15875095 -0.055028398 0.198097 0.11359781 -0.096468404 -0.05031038 0.043102525 -0.10223282
-0.19631423 -0.0011634141 -0.01226724 0.022024153 0.14480335 0.047363024 -0.03836872 0.05657843
-0.017604394 -0.048216496 0.11545903 -0.08550248 -0.20521739 0.048459962 0.03588138 0.032700956
-0.037269972 0.13374065 -0.09479946 0.17180692 0.0808116 0.18943736 0.07166517 0.019016352
-0.19100934 -0.020740086 -0.16037743 0.084153816 -0.098534 -0.17447373 0.02521715 -0.010392885
0.17622471 -0.17772377 -0.19694029 0.15190896 0.11360613 -0.16390361 -0.040484853 -0.053368308
0.10226444 0.017643645 -0.122767165 0.2012379 0.14117582 -0.0044708196 -0.21253914 0.1645179
0.03335383 -0.21193498 0.023187486 -0.12190858 0.11437784 -0.020015392 -0.14100285 0.17250896
0.116260126 -0.0046895244 -0.06192822 -0.11803774 -0.1718568 0.13607176 -0.09317778 0.1968766
0.17309974 -0.011207208 0.12461472 -0.008252622 -0.14830649 0.021291783 -0.12136558 -0.0038799762
-0.14434488 -0.14180584 0.061965685 0.02686947 0.04653445 0.10454983 0.1541016 -0.18041211
-0.039616697 0.055106025 0.10923055 -0.07931009 -0.18002793 0.023661988 -0.025606478 0.09255995
-0.11593 -0.0939901 -0.21128473 -0.08469444 -0.19930205 0.068030454 0.09437324 -0.0062250947
-0.098885156 -0.14742026 0.07738625 -0.06108234 0.014559271 0.20515719 -0.037342973 -0.16278425
-0.12189097 -0.07107266 -0.1428441 -0.028128846 -0.017220695 -0.11264667 -0.18841094 -0.013693374
0.14026348 0.16323234 -0.019694142 0.108940735 0.20763712 0.050983224 0.1318845 0.06408662
-0.027063435 0.034237858 -0.17984018 0.078399286 0.07693989 -0.21411696 -0.120258234 -0.085810706
0.09163676 -0.17644718 0.13063699 -0.10736585 -0.11856022 0.13574383 0.18866485 0.1650407
00000000: c34c 643e de91 5f3c 12c7 90bd 47ef 00be
00000010: 68a9 513e ada7 073e 3c81 d03d 3010 52bd
00000020: 5ac1 8bbd 0fdd d7bd b10d 33be 7624 b7bd
00000030: 8cf8 acbb b8da 07be edd3 62be f9d7 3f3e
00000040: e6c0 c33d 6606 17be e6e0 e2bd f81a 3d3d
00000050: fa86 93bd 369f 89bd b6b2 12be 28d5 0a3e
00000060: b31f ea3d 6d72 b13d 76c4 673d bd49 e6bc
00000070: 868f 503e 0e6e 293d 67c4 dfbd facf 5dbe
00000080: 3d78 debd 83b0 033e 03b7 b7bc e751 803c
00000090: bf2b 9bbc 53a0 4f3e 9f4e 363e fc7b 3cbe
000000a0: 761b 033e c686 463d 9cbf d93d 6bd5 93bd
000000b0: 1e2d 233e 83be 0b3e 0390 0bbe 84e9 eb3d
000000c0: 8b0a 93bd 8cfe c53d 13fd d93d dbcc 1dbd
000000d0: c0fc e53d ed73 4d3e d01e e4bd f467 b43d
000000e0: 636d fc3d 8862 013d 4caa 0bbe d333 f83d
000000f0: 815c 07be c98a 5e3d 4ebd 37be d8ba b1bd
00000100: 76eb a6bc dc32 443d 5d79 393d 280b 1f3e
00000110: ea45 52be d833 32be 371b f8bb bab5 ed3d
00000120: 68f7 5c3e b218 e5bd 7820 4dbc bce3 fc3d
00000130: 8ea5 22be 17ce 3b3c 9d8a 19be e639 17bd
00000140: b8a8 4d3e e5ad 1e3e 0e9a 383e f0a5 203e
00000150: 044d c7bd 9049 a2bb ea08 b6bd eeaa 803d
00000160: 41e2 64be dbfc 5fbd 4055 25be be09 553e
00000170: 32f5 3bbd 3316 b2bc ecc8 15be 491b 4bbe
00000180: 67a0 26bd 12ec 203e 5cbe 163e 4d5d 52be
00000190: 9035 043e ee36 383e f211 053e 63a7 f13d
000001a0: c2fc dfbd f0e4 8e3d 83f3 1bbe 294a ae3d
000001b0: 5635 8dbd c011 293c e1e4 1c3e 0916 e43c
000001c0: 9c8f 223e 7565 61bd f1d9 4a3e f8a5 e83d
000001d0: 3a91 c5bd 4212 4ebd 468c 303d 715f d1bd
000001e0: 9906 49be b37d 98ba 89fc 48bc ff6b b43c
000001f0: 5447 143e bbff 413d 8528 1dbd c9be 673d
00000200: 1737 90bc a97e 45bd c975 ec3d ed1b afbd
00000210: 8224 52be f47d 463d 5bf8 123d 70f1 053d
00000220: 66a8 18bd 4ff3 083e 3826 c2bd 27ee 2f3e
00000230: 8d80 a53d defb 413e 30c5 923d 2ec8 9b3c
00000240: f497 43be 1de7 a9bc fb39 24be d658 ac3d
00000250: 32cc c9bd 3ea9 32be 3294 ce3c eb46 2abc
00000260: 4074 343e 38fd 35be b7aa 49be 068e 1b3e
00000270: 55aa e83d 59d6 27be 72d3 25bd ba98 5abd
00000280: 0570 d13d 6889 903c 5a6d fbbd 4f11 4e3e
00000290: 6590 103e f47f 92bb dca3 59be 6177 283e
000002a0: 079e 083d 7c05 59be aff3 bd3c 35ab f9bd
000002b0: ee3e ea3d 52f7 a3bc 0d63 10be 30a6 303e
000002c0: ca19 ee3d 95aa 99bb 72a8 7dbd c5bd f1bd
000002d0: 3bfb 2fbe 6556 0b3e fed3 bebd 059a 493e
000002e0: 0f41 313e 709e 37bc 0136 ff3d 0136 07bc
000002f0: a8dd 17be 1b6c ae3c 848e f8bd 3347 7ebb
00000300: 25cf 13be 8d35 11be bbcf 7d3d 5d1d dc3c
00000310: e89a 3e3d 391e d63d cfcc 1d3e f4bd 38be
00000320: 1e45 22bd dbb6 613d 44b4 df3d 546d a2bd
00000330: 3e59 38be c9d6 c13c adc4 d1bc 1290 bd3d
00000340: b56c edbd e27d c0bd 065b 58be 4774 adbd
00000350: d615 4cbe 8d53 8b3d c246 c13d e1fb cbbb
00000360: 4d84 cabd 56f5 16be af7c 9e3d 7a31 7abd
00000370: 028a 6e3c ba14 523e f2f4 18bd eab0 26be
00000380: f9a1 f9bd 8b8e 91bd b945 12be 776e e6bc
00000390: 6a12 8dbc 4cb3 e6bd ccee 40be 2c5a 60bc
000003a0: 3ba1 0f3e 6126 273e 9c55 a1bc 521c df3d
000003b0: d39e 543e c9d3 503d bb0c 073e d93f 833d
000003c0: 23b4 ddbc ff3c 0c3d 0628 38be ce8f a03d
000003d0: a992 9d3d 7a41 5bbe f349 f6bd 86bd afbd
000003e0: 0eac bb3d 92ae 34be b4c5 053e a0e2 dbbd
000003f0: b3cf f2bd 6e00 0b3e 5c31 413e 6e00 293e

lstm.weight_hh_l0 f4 [80, 20]
0.069144964 -0.05996125 -0.060147256 -0.015870374 -0.015180276 0.11053729 -0.17329657 0.070178606
-0.18118557 0.02830319 -0.06371602 0.04184801 0.19502054 0.056958582 -0.036648784 -0.0543999
0.17835245 -0.1792359 0.035913184 0.15619412 0.21501228 -0.21560623 0.0053740377 -0.08025311
0.20657401 -0.08567113 0.2103116 0.20993184 -0.19525082 0.053511776 -0.049435724 -0.039172094
0.032199576 -0.0827355 0.108284935 0.17850147 0.12081673 -0.025086341 0.09765772 0.079767995
-0.036828075 0.0062400647 0.2045723 -0.13389021 0.16434783 0.16832848 0.07560782 -0.21033256
-0.113424085 0.20777553 0.21043108 -0.066051185 -0.19326869 -0.08869605 -0.039587397 -0.14516686
-0.17734231 0.18295476 -0.13348942 -0.0024768228 -0.19376078 0.18601231 -0.050687622 -0.19978368
0.19640946 0.13331719 0.155465 0.029256674 -0.03916231 0.22097982 -0.19115628 0.05976706
-0.053897247 0.1499705 -0.108970314 0.03540776 -0.024830204 0.09016304 -0.20008183 -0.1038119
-0.0828409 0.08880041 0.122854605 0.21016468 -0.021581503 0.20441778 -0.22117937 0.18411379
0.10557837 -0.06908352 -0.14430587 -0.037910573 0.029531578 -0.03694904 0.07575547 0.19603467
0.09335235 -0.12839481 -0.08884565 0.20095882 0.07816178 -0.053511936 0.2051369 0.110384874
0.03239699 -0.097990066 0.15638979 0.16618952 0.043669976 -0.085311085 -0.08671692 0.18568185
0.21243975 0.1974929 0.16029446 -0.12197261 0.009547409 -0.11419937 0.15190555 0.13502827
0.1978816 0.06586494 -0.0051606297 0.06056562 -0.108662225 -0.10004322 0.15643933 -0.10809701
0.02236199 0.020537253 0.06631967 0.061060328 0.06322384 -0.10754153 -0.11108883 0.18014807
-0.01075114 0.12104264 0.04392041 0.15413271 0.080180205 -0.17512162 -0.020285275 -0.10273692
-0.18166652 0.19259384 0.003539438 -0.14152172 0.14525059 -0.06719905 0.10454468 0.14247665
-0.19553612 0.05139478 0.016816236 -0.08071948 -0.056089222 0.0008215648 -0.011823432 -0.00096142886
0.08589109 -0.057454173 -0.040313613 -0.18853608 0.11697861 -0.030862859 -0.12286391 0.17834878
-0.052140083 0.06460283 -0.060789984 -0.048643135 -0.08398468 -0.016969748 -0.18719986 0.1596521
0.05379438 0.17647554 -0.19234028 0.18146703 0.11744682 0.14883555 0.10876333 0.1353559
0.074325055 -0.18271099 0.080759116 0.123837866 -0.014534375 -0.11810029 0.1513503 -0.034231298
-0.07123133 0.0363903 0.010998509 0.17247969 -0.013140959 0.018605733 -0.124411024 -0.037393555
-0.18208967 0.011350795 0.02852318 -0.061668247 -0.11317613 -0.118441306 -0.11464336 -0.20031358
0.0731158 0.15113218 -0.2229639 0.17453143 -0.18837523 0.22187208 0.2129384 0.004479489
0.025797045 0.17550662 0.19762398 0.0099867 0.13294744 -0.2215166 -0.17312087 -0.18123147
0.090643056 0.00015455153 0.16151927 0.041968975 0.07509003 0.12728447 0.16922694 -0.020450221
0.06293262 -0.11470309 0.061350826 -0.050297245 0.07732367 -0.10095248 0.10358458 0.05483559
0.017226338 -0.15082681 -0.0688949 0.14465557 -0.21786357 0.15212858 0.052739095 -0.16140218
0.07370868 -0.19465046 0.1194159 -0.1696106 0.21772085 -0.12642011 0.0037039055 0.0095060915
00000000: e09b 8d3d ed99 75bd f85c 76bd 9602 82bc
00000010: b1b6 78bc 6061 e23d a874 31be cdb9 8f3d
00000020: b688 39be 17dc e73c 8b7d 82bd d268 2b3d
00000030: 77b3 473e 674d 693d 091d 16bd 6ed2 5ebd
00000040: 06a2 363e 9e89 37be b419 133d 5af1 1f3e
00000050: 2e2c 5c3e e1c7 5cbe b218 b03b be5b a4bd
00000060: 2388 533e 5874 afbd ed5b 573e 5ff8 563e
00000070: d5ef 47be 2a2f 5b3d 1d7d 4abd eb72 20bd
00000080: b4e3 033d 3b71 a9bd 7ec4 dd3d 17c9 363e
00000090: c36e f73d df81 cdbc c500 c83d 675d a33d
000000a0: 09d9 16bd 7579 cc3b 677b 513e 841a 09be
000000b0: cc4a 283e 4d5e 2c3e 46d8 9a3d 6b61 57be
000000c0: e34a e8bd 1cc3 543e 3f7b 573e d845 87bd
000000d0: 3ae8 45be 46a6 b5bd 6526 22bd 9fa6 14be
000000e0: 3999 35be 7e58 3b3e 73b1 08be 3152 22bb
000000f0: 3a69 46be 037a 3e3e d39d 4fbd 1894 4cbe
00000100: 901f 493e 4d84 083e 3832 1f3e b1ab ef3c
00000110: a968 20bd 8948 623e 79be 43be 4ece 743d
00000120: 5cc3 5cbd de91 193e d42b dfbd ba07 113d
00000130: b668 cbbc 66a7 b83d 40e2 4cbe 559b d4bd
00000140: 7da8 a9bd fddc b53d 329b fb3d 6935 573e
00000150: b1cb b0bc e552 513e d87c 62be 5388 3c3e
00000160: 7939 d83d a97b 8dbd ebc4 13be 1e48 1bbd
00000170: 35ec f13c e057 17bd af25 9b3d 50bd 483e
00000180: 842f bf3d ee79 03be b5f4 b5bd 26c8 4d3e
00000190: 4913 a03d 552f 5bbd 680f 523e 7711 e23d
000001a0: b5b2 043d 04af c8bd a524 203e 962d 2a3e
000001b0: 4adf 323d 94b7 aebd a498 b1bd 6223 3e3e
000001c0: ce89 593e 943b 4a3e 3b24 243e c7cc f9bd
000001d0: bc6c 1c3c 5ce1 e9bd 218d 1b3e da44 0a3e
000001e0: 79a1 4a3e 33e4 863d 801a a9bb a813 783d
000001f0: 4d8a debd 76e3 ccbd a231 203e f761 ddbd
00000200: 7e30 b73c be3d a83c 9bd2 873d 651a 7a3d
00000210: 807b 813d bc3e dcbd 8a82 e3bd bc78 383e
00000220: 8d25 30bc 34e5 f73d e3e5 333d f7d4 1d3e
00000230: 8535 a43d 1553 33be 4e2d a6bc bc67 d2bd
00000240: ca06 3abe 5237 453e eaf5 673b 12eb 10be
00000250: 92bc 143e a89f 89bd 851b d63d 66e5 113e
00000260: 9f3a 48be 5583 523d 34c2 893c 4150 a5bd
00000270: d0bd 65bd 485e 573a 11b7 41bc 6608 7cba
00000280: abe7 af3d 1155 6bbd e31f 25bd 9a0f 41be
00000290: 7b92 ef3d 1bd4 fcbc 13a0 fbbd 10a1 363e
000002a0: d790 55bd 7d4e 843d ebfe 78bd 063e 47bd
000002b0: 2900 acbd 2404 8bbc 52b1 3fbe d77b 233e
000002c0: 7f57 5c3d 01b6 343e daf4 44be 7ed2 393e
000002d0: f587 f03d 5968 183e 4fbf de3d bd9a 0a3e
000002e0: bc37 983d 9718 3bbe 0965 a53d b59e fd3d
000002f0: 9621 6ebc 91de f1bd 93fb 1a3e 1e36 0cbd
00000300: bbe1 91bd ff0d 153d 1733 343c 849e 303e
00000310: 2d4d 57bc 0d6b 983c 35cb febd fc29 19bd
00000320: b775 3abe aff8 393c 72a9 e93c d897 7cbd
00000330: e3c8 e7bd 5b91 f2bd 23ca eabd 011f 4dbe
00000340: bdbd 953d 65c2 1a3e a650 64be 5eb8 323e
00000350: 70e5 40be 6f32 633e 860c 5a3e adc8 923b
00000360: 5354 d33c 02b8 333e f15d 4a3e 419f 233c
00000370: 6023 083e 3fd5 62be 9946 31be be94 39be
00000380: 11a3 b93d 1c0f 2239 4f65 253e a9e7 2b3d
00000390: cdc8 993d dc56 023e d449 2d3e 3987 a7bc
000003a0: d1e2 803d 74e9 eabd 014b 7b3d 7c04 4ebd
000003b0: df5b 9e3d 2dc0 cebd 2724 d43d 499b 603d
000003c0: 401e 8d3c 5872 1abe c518 8dbd 9720 143e
000003d0: a117 5fbe 98c7 1b3e f304 583d 9d46 25be
000003e0: 94f4 963d 7352 47be 5390 f43d 67ae 2dbe
000003f0: 37f2 5e3e 4674 01be 39bd 723b 70bf 1b3c

lstm.bias_ih_l0 f4 [80]
-0.22278154 0.16974296 -0.1655753 0.21820726 -0.14351808 0.11591944 0.117089 0.12721358
-0.19969845 0.1741174 -0.042736627 -0.01400545 0.0142608 -0.063624136 -0.014800509 0.19976136
-0.11672082 -0.14247723 0.20422685 0.004708623 0.02494917 -0.014418474 -0.1885695 -0.20206422
0.005559137 0.058236178 -0.1353472 -0.0056487545 -0.17350459 0.18013573 -0.16065626 -0.09718407
-0.121659644 0.19674137 0.054171644 0.05876234 -0.107548244 -0.21236375 0.10010042 0.15854903
-0.04645898 0.1250234 0.13391316 -0.12183175 0.19623509 -0.14096466 0.06931475 0.2118235
-0.09514788 0.21381037 -0.12529884 0.18836278 -0.0558969 -0.030645968 -0.059206557 -0.08151051
0.16157575 -0.094382346 -0.107925706 -0.06777517 -0.16581763 -0.00897743 -0.049190994 -0.11550844
0.14920901 -0.012689628 0.044916615 0.16835041 0.030366546 -0.21440303 -0.046720605 -0.050182942
0.20825446 0.02080452 -0.008383723 -0.1780011 -0.1289787 0.19082798 -0.06773335 0.0062462147
00000000: d820 64be 19d1 2d3e 928c 29be b971 5f3e
00000010: 67f6 12be 2c67 ed3d 5ccc ef3d 4744 023e
00000020: c07d 4cbe d54b 323e 9a0c 2fbd 1d77 65bc
00000030: 21a6 693c 5f4d 82bd d67d 72bc 3e8e 4c3e
00000040: 530b efbd 8de5 11be d820 513e cb4a 9a3b
00000050: 3462 cc3c 773b 6cbc 5d18 41be ece9 4ebe
00000060: 6c29 b63b 0f89 6e3d 7598 0abe 3019 b9bb
00000070: 30ab 31be 8075 383e 1383 24be 7108 c7bd
00000080: b128 f9bd 9276 493e 16e3 5d3d c8b0 703d
00000090: 4142 dcbd e275 59be 7301 cd3d ad5a 223e
000000a0: c54b 3ebd 2206 003e 8820 093e ed82 f9bd
000000b0: daf1 483e 0a59 10be e4f4 8d3d 42e8 583e
000000c0: e4dc c2bd 1bf1 5a3e 574e 00be 2ce2 403e
000000d0: 26f4 64bd 410d fbbc 9382 72bd fbee a6bd
000000e0: 1d74 253e 884b c1bd 2708 ddbd b5cd 8abd
000000f0: 19cc 29be 1216 13bc 7f7c 49bd b08f ecbd
00000100: 3fca 183e 28e8 4fbc 7cfa 373d 0d64 2c3e
00000110: 43c3 f83c 788c 5bbe 1b5e 3fbd a18c 4dbd
00000120: a840 553e 3e6e aa3c e25b 09bc ec45 36be
00000130: fe12 04be 6968 433e c8b7 8abd 0cad cc3b

lstm.bias_hh_l0 f4 [80]
0.002491734 -0.10784928 0.21854569 0.16123609 0.12129042 -0.06837315 -0.14710702 -0.1293839
0.18176132 0.06879685 -0.0810996 0.19964573 0.13301124 -0.05652577 -0.20186341 -0.08820387
0.21986566 -0.06726116 -0.06937212 0.20738344 0.03824729 -0.16480184 -0.029302815 -0.19910537
0.07344258 0.16095808 0.21415287 -0.036994405 0.029646251 -0.06776909 -0.14596574 -0.013090098
-0.14057875 0.06401238 -0.15930766 -0.15763117 -0.05346678 -0.14789777 0.21789092 0.073450625
-0.21702158 -0.0885588 -0.10756261 -0.11826843 0.11411322 0.06190329 -0.1285627 -0.123922035
0.06681285 -0.062413245 0.06268084 -0.17886163 -0.030197157 -0.04879916 0.19377492 0.18262242
-0.09529668 0.11385784 0.16148503 -0.024419915 0.07007597 0.12526816 -0.10504259 -0.007228565
0.12544115 -0.10888608 0.21977553 -0.10458355 -0.18795079 -0.08739954 0.05524355 -0.15284342
-0.048224505 0.19668841 -0.20004633 -0.20415506 -0.015821813 -0.043797743 -0.06910816 0.055746414
00000000: 5c4c 233b 15e0 dcbd 71ca 5f3e 131b 253e
00000010: 1d67 f83d 3907 8cbd 39a3 16be 377d 04be
00000020: a41f 3a3e 5de5 8c3d 8c17 a6bd ee6f 4c3e
00000030: 1934 083e 9187 67bd 48b5 4ebe 3ba4 b4bd
00000040: 7724 613e 38c0 89bd f812 8ebd 535c 543e
00000050: 31a9 1c3d d0c1 28be 750c f0bc 47e2 4bbe
00000060: 1069 963d 32d2 243e e44a 5b3e 7287 17bd
00000070: b2dc f23c 85ca 8abd 0b78 15be da77 56bc
00000080: e0f3 0fbe ec18 833d 8c21 23be 116a 21be
00000090: fbff 5abd 8372 17be cc1e 5f3e 486d 963d
000000a0: e83a 5ebe 515e b5bd c949 dcbd b836 f2bd
000000b0: 31b4 e93d 4e8e 7d3d f1a5 03be d6ca fdbd
000000c0: 2dd5 883d 08a5 7fbd d05e 803d 8127 37be
000000d0: 0760 f7bc a1e1 47bd ef6c 463e 5f01 3b3e
000000e0: e82a c3bd 4d2e e93d 555c 253e 460c c8bc
000000f0: fd83 8f3d 4c46 003e 9220 d7bd 99dd ecbb
00000100: a573 003e aaff debd d60c 613e e62f d6bd
00000110: 2c76 40be 88fe b2bd 1047 623d fc82 1cbe
00000120: 0f87 45bd b068 493e f2d8 4cbe 060e 51be
00000130: bf9c 81bc 4365 33bd 9488 8dbd 5a56 643d

lstm.weight_ih_l0_reverse f4 [80, 100]
-0.16037463 -0.21779466 -0.20361027 0.21485122 -0.091899976 0.16911656 -0.0059982995 -0.049663935
0.18066247 0.143219 0.0751607 -0.09839792 -0.22321908 -0.0095093595 0.19838399 -0.067968816
0.02053104 -0.11053829 -0.059085928 -0.15804587 0.13525607 0.20031872 -0.10524921 -0.02608586
0.16378611 -0.10044179 0.08196258 -0.20343095 -0.0044832765 0.018259723 -0.09667712 0.09461283
0.022904512 -0.15235905 0.10514983 -0.15447496 -0.18869328 0.17177962 0.05119364 -0.13069609
0.11988515 0.1792261 0.014465653 -0.18387617 0.10754852 0.04620092 -0.09399401 0.03494002
-0.12342373 0.16689053 -0.04271153 0.01647811 -0.07361831 0.16161776 -0.02010626 0.031679075
0.12883894 0.022111295 0.07418082 0.06989431 0.12196247 0.0295177 0.17036293 0.15715949
-0.03622794 0.14461994 -0.010471852 -0.018141322 -0.11638824 0.093206525 0.03751552 0.052519582
-0.13688444 -0.1424493 -0.06187031 0.07165068 -0.016769322 0.20854162 0.22293778 0.027024515
0.09929202 0.10157497 0.16547713 -0.18167093 0.063521095 -0.17394707 0.13608153 0.00017350423
0.12587391 0.17676994 -0.1779578 0.02768521 0.12833925 0.19845116 -0.0148409605 -0.004369685
-0.088300824 -0.051469516 0.07566146 -0.03307224 0.11383944 -0.08757747 -0.115141556 -0.06676816
0.14553836 -0.018060578 -0.21385716 0.1253629 -0.022224592 -0.10512217 -0.11885082 0.09361477
-0.20082536 -0.19770269 0.01619609 -0.081610404 0.04895956 -0.038938593 -0.2224091 0.17832182
-0.1248851 0.10963982 0.11658374 -0.16096048 -0.16417722 -0.05737011 -0.089578666 -0.1395352
-0.1301086 -0.13283685 0.16084473 -0.14977448 -0.0959001 0.02723034 0.112093784 0.109010056
0.17462029 -0.036574088 -0.16418347 -0.0036416592 0.0151793845 0.07810794 0.116677046 -0.08702059
-0.1552629 0.115765244 -0.1827104 0.14627142 -0.22092476 0.13093986 -0.17836334 0.12802432
0.17987415 -0.13318485 -0.11043501 0.016963823 0.14959365 0.21992671 -0.17297891 0.007753313
0.072626375 0.0031171157 -0.17858809 0.13722022 -0.026652068 -0.060686942 -0.19016087 0.13079387
-0.12655215 0.09761506 -0.16139257 -0.08002614 0.21344243 0.18859407 0.09088268 0.1761465
0.0514256 -0.10395798 0.16830766 -0.12074892 0.17133968 -0.104435526 -0.14503916 -0.06852575
-0.2098302 -0.2228242 0.2045954 -0.12505825 0.09731746 0.02027097 0.11956881 -0.20012
0.19910248 0.1844553 0.02329147 0.14245279 0.15812656 -0.2058766 -0.103152655 -0.051199548
0.20692183 0.15645763 -0.1682822 0.16457021 -0.066582136 -0.036041327 -0.1371184 -0.03245434
-0.1589127 -0.1544518 0.041842066 -0.116058186 -0.17546588 -0.17665581 -0.080731004 -0.067531995
0.07885235 0.04060154 -0.17640102 0.09214709 0.09475495 0.13064411 -0.16916572 -0.18801267
-0.014582123 -0.14435594 0.09428765 -0.12085947 -0.17581306 -0.12265466 -0.14705065 0.06683302
-0.1974319 0.12812857 -0.21132456 -0.1487712 -0.20863293 0.093719825 -0.12190215 -0.15209982
0.020489564 0.20609118 0.18386209 0.15484166 0.055978958 -0.06887017 0.19252451 -0.07866262
0.1048338 -0.20063879 -0.14314677 0.027666021 -0.06989845 0.19258496 -0.17558514 -0.19125032
00000000: 3f39 24be 9005 5fbe 367f 50be f501 5c3e
00000010: 0e36 bcbd e42c 2d3e 628d c4bb 696c 4bbd
00000020: 95ff 383e 00a8 123e daed 993d d984 c9bd
00000030: 8b93 64be 25cd 1bbc 2c25 4b3e 3c33 8bbd
00000040: b630 a83c e661 e2bd 1604 72bd c7d6 21be
00000050: 9180 0a3e 5a20 4d3e e68c d7bd 03b2 d5bc
00000060: 8cb7 273e 6db4 cdbd ffdb a73d 3450 50be
00000070: 73e8 92bb 6a95 953c a7fe c5bd 5fc4 c13d
00000080: 3ea2 bb3c 0304 1cbe cb58 d73d af2e 1ebe
00000090: d038 41be ffe6 2f3e 6cb0 513d 32d5 05be
000000a0: 5886 f53d 0c87 373e 5901 6d3c 094a 3cbe
000000b0: 6642 dc3d 2d3d 3d3d ee7f c0bd 441d 0f3d
000000c0: 95c5 fcbd 5ae5 2a3e 49f2 2ebd 1afd 863c
000000d0: 32c5 96bd 207f 253e e2b5 a4bc ebc1 013d
000000e0: 5bee 033e bf22 b53c 1dec 973d bf24 8f3d
000000f0: 76c7 f93d 1bcf f13c 9f73 2e3e 6bee 203e
00000100: c063 14bd 4017 143e 2192 2bbc 1c9d 94bc
00000110: f55c eebd 10e3 be3d e0a9 193d c61e 573d
00000120: 6f2b 0cbe 3bde 11be b96b 7dbd 97bd 923d
00000130: d15f 89bc ef8b 553e cd49 643e 8462 dd3c
00000140: 9d59 cb3d 8a06 d03d d672 293e f207 3abe
00000150: 5917 823d 2e1f 32be f558 0b3e b0ee 3539
00000160: 17e5 003e 2e03 353e 923a 36be 18cc e23c
00000170: 5d6b 033e c836 4b3e 8027 73bc 932f 8fbb
00000180: 10d7 b4bd b3d1 52bd 65f4 9a3d c276 07bd
00000190: a724 e93d d15b b3bd 56cf ebbd bfbd 88bd
000001a0: 0208 153e c7f3 93bc 5ffd 5abe 225f 003e
000001b0: 5910 b6bc 4b4a d7bd 0f68 f3bd 1ab9 bf3d
000001c0: 2aa5 4dbe 9372 4abe aaad 843c 5b23 a7bd
000001d0: d289 483d 137e 1fbd 36bf 63be ff99 363e
000001e0: c2c3 ffbd d88a e03d 75c3 ee3d d3d2 24be
000001f0: 131e 28be ecfc 6abd 0575 b7bd 51e2 0ebe
00000200: 303b 05be 6206 08be 7bb4 243e 7b5e 19be
00000210: 4667 c4bd 2912 df3c 6d91 e53d aa40 df3d
00000220: a9cf 323e b6ce 15bd b61f 28be e7a8 6ebb
00000230: f4b2 783c 0ef7 9f3d 60f4 ee3d da37 b2bd
00000240: 3dfd 1ebe 5416 ed3d 6f18 3bbe 2dc8 153e
00000250: 1a3a 62be 1915 063e e1a4 36be cf18 033e
00000260: ee30 383e 9c61 08be c02b e2bd b7f7 8a3c
00000270: 142f 193e 7834 613e 6221 31be 810f fe3b
00000280: 23bd 943d 8648 4c3b ccdf 36be 7583 0c3e
00000290: 7055 dabc df92 78bd 88b9 42be d4ee 053e
000002a0: e396 01be 68ea c73d 1844 25be bfe4 a3bd
000002b0: a790 5a3e ce1e 413e b320 ba3d c05f 343e
000002c0: a6a3 523d ece7 d4bd d858 2c3e 364b f7bd
000002d0: ab73 2f3e 4be2 d5bd 2585 14be 3a57 8cbd
000002e0: badd 56be 072c 64be 7581 513e 450f 00be
000002f0: 604e c73d 4e0f a63c 7ee0 f43d 42ec 4cbe
00000300: 85e1 4b3e dae1 3c3e c1cd be3c 25df 113e
00000310: eeeb 213e 51d1 52be b341 d3bd 9eb6 51bd
00000320: 51e3 533e 6e36 203e 2b52 2cbe 1885 283e
00000330: 375c 88bd 12a0 13bd c468 0cbe d8ee 04bd
00000340: 03ba 22be 9d28 1ebe 9662 2b3d eaaf edbd
00000350: 54ad 33be 43e5 34be 4c56 a5bd 374e 8abd
00000360: 577d a13d cd4d 263d 78a2 34be 9db7 bc3d
00000370: e20e c23d 92c7 053e c739 2dbe 6586 40be
00000380: dbe9 6ebc 0bd2 13be e219 c13d 2b85 f7bd
00000390: 5708 34be 5e32 fbbd 7294 16be c0df 883d
000003a0: 972b 4abe 2334 033e 7765 58be 7a57 18be
000003b0: dfa3 55be 2ef0 bf3d d6a7 f9bd 0ec0 1bbe
000003c0: bbd9 a73c 9109 533e 5846 3c3e d08e 1e3e
000003d0: 314a 653d ce0b 8dbd 2525 453e de19 a1bd
000003e0: 1ab3 d63d 4174 4dbe 1195 12be daa3 e23c
000003f0: eb26 8fbd fe34 453e 97cc 33be 20d7 43be

lstm.weight_hh_l0_reverse f4 [80, 20]
-0.218462 -0.21336713 0.0563162 0.12319809 0.18379554 0.1407825 -0.2086102 0.17667276
-0.14972432 0.023939813 -0.22027618 0.21089727 -0.13408062 0.11197882 0.14838064 -0.03857271
-0.1935546 0.19304435 -0.10601766 0.09051063 -0.040623568 -0.08973977 -0.19715433 0.16403422
-0.166279 -0.021797257 0.11035717 0.09123181 0.13860634 -0.2064384 0.04047019 0.17861667
0.05834315 -0.17555363 -0.016467175 0.20224552 0.0026729312 -0.12616012 -0.10814321 0.012840359
0.19490284 -0.015727364 -0.014432495 0.04318436 0.15926202 -0.07874395 0.12124277 -0.18247938
-0.060820505 -0.060964555 0.0347275 0.21949479 0.19127706 0.14897704 -0.0387577 -0.11344362
-0.14239687 0.024872348 0.20132594 0.19380751 0.13255459 0.021652061 -0.07689245 0.037415866
0.055705752 -0.09458162 0.0076565114 0.08869643 0.065718256 -0.113735825 -0.071245566 0.16170874
0.11494201 -0.13236038 0.053074695 0.053726833 -0.12386529 0.12158703 0.20942947 0.12183445
-0.006253499 -0.086246416 -0.14478232 -0.029550023 -0.111905545 -0.148686 -0.08155805 0.07405137
0.14973606 -0.033780545 -0.07413044 -0.1867909 0.046556927 -0.12666564 -0.053714335 -0.16376896
-0.054966234 -0.14135627 -0.07958532 -0.15431383 -0.0141856335 0.056417227 -0.008956285 0.12782763
-0.057022825 -0.1251249 0.0065929103 0.0036131418 0.2094299 -0.100015715 -0.15920924 0.031618156
-0.16038708 -0.058731582 -0.22040893 0.0943032 0.09653118 0.009524805 0.023759006 -0.03949994
0.16465884 0.067553736 0.08113108 -0.15466306 -0.1449108 -0.11913116 0.13638045 0.08490333
-0.18880668 0.11419007 0.15366 -0.19770291 0.074152105 -0.03763175 0.028406827 -0.187959
0.2181191 -0.18726015 -0.14495084 0.18875214 -0.22278067 0.15050858 0.088882245 -0.06376277
-0.10933257 -0.16049324 0.091708876 -0.19391598 0.2110595 0.17312424 -0.08811538 -0.009956738
-0.10408798 0.13560918 0.18175204 -0.19971012 0.02724649 0.08139215 0.20055938 0.12009875
-0.19624521 -0.1252498 0.14094654 -0.19804458 -0.20519927 0.062026795 0.14747386 -0.053197313
0.19728796 -0.19916487 -0.11566673 -0.19829655 0.043509133 -0.19548239 0.0333279 -0.21634775
-0.044518065 -0.03229021 0.21276145 -0.08156019 -0.10903754 0.11684389 -0.073518224 -0.17972775
-0.050657824 -0.1482593 0.21762143 0.2176114 -0.109470755 -0.20209686 -0.1959117 -0.14501782
0.046755437 0.0100619765 -0.18760552 -0.123484835 0.19192895 0.11440142 0.028235428 0.0011053446
0.16589102 0.10166596 -0.06904391 -0.19617046 -0.023108492 -0.22241013 0.042869657 -0.11861785
0.19543485 0.1291603 -0.17289998 -0.0098011205 -0.061287783 -0.16743174 0.09905271 0.039088555
0.13180913 0.12224536 0.12760866 -0.016560791 -0.21561943 0.14942777 -0.042886183 -0.18152775
-0.1115012 0.22015367 -0.16828617 0.12331384 0.093370184 -0.17940994 -0.17194812 0.04421661
0.22152406 0.014639479 -0.06673867 0.066942565 -0.09493865 0.17859527 0.14274038 -0.09983568
0.18122812 -0.112806834 0.05530186 0.120364904 -0.072528034 -0.12785017 0.036608428 -0.10403549
0.0665057 -0.17847008 0.15381692 0.071314946 0.16957654 0.21716617 0.0981 -0.18985973
00000000: 81b4 5fbe ea7c 5abe d1ab 663d 484f fc3d
00000010: e634 3c3e 4a29 103e ea9d 55be b4e9 343e
00000020: 5551 19be 6d1d c43c 1490 61be 74f5 573e
00000030: 6e4c 09be 2755 e53d 18f1 173e 6bfe 1dbd
00000040: 2d33 46be 6bad 453e c91f d9bd a35d b93d
00000050: e664 26bd 7cc9 b7bd d3e2 49be 96f8 273e
00000060: 0b45 2abe 2990 b2bc f102 e23d bed7 ba3d
00000070: d2ee 0d3e 9764 53be 12c4 253d 4ae7 363e
00000080: 3af9 6e3d 55c4 33be 2be6 86bc 7319 4f3e
00000090: 582c 2f3b 1e30 01be 307a ddbd 5e60 523c
000000a0: 9c94 473e acd6 80bc 4676 6cbc 15e2 303d
000000b0: 9515 233e 8244 a1bd 214e f83d e0db 3abe
000000c0: ec1e 79bd f8b5 79bd 6c3e 0e3d 3ec3 603e
000000d0: 22de 433e 708d 183e 65c0 1ebd 2155 e8bd
000000e0: 7cd0 11be 18c1 cb3c 6328 4e3e 7a75 463e
000000f0: 64bc 073e aa5f b13c ca79 9dbd 6141 193d
00000100: b72b 643d 02b4 c1bd 79e3 fa3b 79a6 b53d
00000110: 4b97 863d 54ee e8bd 32e9 91bd fa96 253e
00000120: b766 eb3d 7b89 07be da64 593d ab10 5c3d
00000130: 16ad fdbd 9f02 f93d ae74 563e 5784 f93d
00000140: 27ea ccbb f6a1 b0bd d141 14be e412 f2bc
00000150: bc2e e5bd 2541 18be e807 a7bd 3fa8 973d
00000160: 6954 193e 785d 0abd b3d1 97bd 1d46 3fbe
00000170: 7ab2 3e3d a3b4 01be 9003 5cbd 0db3 27be
00000180: 4624 61bd b3bf 10be a1fd a2bd 7204 1ebe
00000190: dc6a 68bc c015 673d 62bd 12bc 3fe5 023e
000001a0: c490 69bd be20 00be 5709 d83b 76ca 6c3b
000001b0: cb74 563e 0ad5 ccbd bf07 23be 0a82 013d
000001c0: 833c 24be 8790 70bd e1b2 61be 0922 c13d
000001d0: 24b2 c53d ed0d 1c3c 3fa2 c23c b0ca 21bd
000001e0: 549c 283e 9d59 8a3d 0d28 a63d fe5f 1ebe
000001f0: 7f63 14be 0afb f3bd 51a7 0b3e cce1 ad3d
00000200: 8a56 41be 7cdc e93d 0c59 1d3e a272 4abe
00000210: 0fdd 973d c023 1abd 6fb5 e83c 5378 40be
00000220: 9d5a 5f3e 20c1 3fbe fe6d 14be 3e48 413e
00000230: 9e20 64be ec1e 1a3e e507 b63d 0e96 82bd
00000240: c1e9 dfbd 5758 24be ddd1 bb3d e991 46be
00000250: fb1f 583e 7b47 313e d675 b4bd 9621 23bc
00000260: 142c d5bd 22dd 0a3e 351d 3a3e cf80 4cbe
00000270: 0834 df3c edb0 a63d 705f 4d3e 55f6 f53d
00000280: 81f4 48be 7c41 00be 4a54 103e 33cc 4abe
00000290: c21f 52be cf0f 7e3d 6303 173e 6de5 59bd
000002a0: db05 4a3e e0f1 4bbe aee2 ecbd 400e 4bbe
000002b0: a236 323d 892c 48be d682 083d 448a 5dbe
000002c0: 9358 36bd bd42 04bd 23de 593e 0709 a7bd
000002d0: 134f dfbd d94b ef3d b990 96bd 8d0a 38be
000002e0: 947e 4fbd 49d1 17be 27d8 5e3e 86d5 5e3e
000002f0: 3432 e0bd 7bf2 4ebe 149d 48be 8d7f 14be
00000300: a182 3f3d fdda 243c a91b 40be 9ee5 fcbd
00000310: 0689 443e 4b4b ea3d fc4d e73c 36e1 903a
00000320: 56df 293e 3e36 d03d e566 8dbd e9e0 48be
00000330: 054e bdbc 7bbf 63be 1898 2f3d eaed f2bd
00000340: 1320 483e 9942 043e b10c 31be e194 20bc
00000350: e608 7bbd 3a73 2bbe 26dc ca3d 521b 203d
00000360: f9f8 063e c65b fa3d d8ab 023e 7faa 87bc
00000370: 57cb 5cbe 9803 193e 6ca9 2fbd 69e2 39be
00000380: be5a e4bd f76f 613e 3653 2cbe f78b fc3d
00000390: de38 bf3d 3db7 37be 2b13 30be 7a1c 353d
000003a0: 34d7 623e 6dda 6f3c 49ae 88bd 2f19 893d
000003b0: 326f c2bd aee1 363e 892a 123e a676 ccbd
000003c0: dd93 393e 4507 e7bd 3484 623d e081 f63d
000003d0: 9489 94bd 28eb 02be b8f2 153d 8f10 d5bd
000003e0: 2434 883d dcc0 36be 2f82 1d3e 920d 923d
000003f0: 79a5 2d3e cf60 5e3e a7e8 c83d 976a 42be

lstm.bias_ih_l0_reverse f4 [80]
0.05187574 -0.061581258 -0.19833542 -0.12434504 -0.09156641 -0.0330307 0.17481881 -0.18140449
0.076493956 -0.034577314 -0.054290824 0.047464862 -0.09578831 -0.12727101 0.21670754 -0.10246204
0.10624343 -0.1139404 -0.1975322 -0.057508174 -0.12187726 -0.11257978 0.18026805 -0.22196023
-0.13546897 0.11003565 -0.06626406 0.17975399 0.026156474 -0.029879864 0.049682826 0.19164819
-0.18513021 -0.11131946 0.10158508 0.18628842 -0.03134544 -0.121599615 -0.049545202 0.04042661
0.081833854 0.117773846 0.08792254 0.11069724 0.10270425 0.034555923 -0.08553372 0.089361146
-0.115328096 0.17418632 -0.066238284 0.17078806 -0.19355759 0.116467714 0.13517503 0.07122197
0.18720981 -0.12262842 0.12657556 -0.10706984 0.01689827 0.20309904 0.011301859 0.05777943
0.07329726 -0.020167192 -0.14759743 -0.075182475 -0.04481049 0.15806098 -0.057163533 -0.056870468
-0.11064178 0.10088773 0.17734875 -0.09849207 -0.12336766 0.20673814 0.15987065 0.19736496
00000000: a87b 543d a13c 7cbd 7118 4bbe 9da8 febd
00000010: 2c87 bbbd 334b 07bd b403 333e 19c2 39be
00000020: dda8 9c3d f1a0 0dbd 0e60 5ebd 846a 423d
00000030: a92c c4bd 5553 02be 95e8 5d3e 9ed7 d1bd
00000040: 2896 d93d 9659 e9bd e245 4abe b18d 6bbd
00000050: c99a f9bd 3a90 e6bd 3098 383e 8b49 63be
00000060: 61b8 0abe 5f5a e13d 74b5 87bd 6e11 383e
00000070: 1a46 d63c 9ec6 f4bc 3880 4b3d 6c3f 443e
00000080: c692 3dbe 75fb e3bd d70b d03d 64c2 3e3e
00000090: 1364 00bd 3809 f9bd e9ef 4abd 5f96 253d
000000a0: 8298 a73d 6a33 f13d bc10 b43d 3cb5 e23d
000000b0: 9b56 d23d 838a 0d3d 4e2c afbd fa02 b73d
000000c0: 2331 ecbd e65d 323e f0a7 87bd 11e3 2e3e
000000d0: f633 46be a086 ee3d 536b 0a3e d3dc 913d
000000e0: eeb3 3f3e 9c24 fbbd 069d 013e 6f47 dbbd
000000f0: 3e6e 8a3c 32f9 4f3e 6f2b 393c 20aa 6c3d
00000100: e01c 963d ab35 a5bc c823 17be 45f9 99bd
00000110: 348b 37bd bdda 213e 4f24 6abd 02f1 68bd
00000120: 2898 e2bd 3a9e ce3d e99a 353e 36b6 c9bd
00000130: 2fa8 fcbd 2ab3 533e 22b5 233e 0a1a 4a3e

lstm.bias_hh_l0_reverse f4 [80]
-0.079774655 -0.20539677 -0.095393635 -0.03644075 -0.117768176 0.10211359 -0.05494172 -0.04843909
-0.08569178 0.1580988 0.15603101 -0.1548748 -0.16253503 -0.12685502 0.042144723 0.17298628
-0.18344754 0.116381064 -0.11147934 0.051225226 0.19325669 -0.15634516 -0.18708162 0.1145141
0.11416624 -0.088551894 0.034783024 0.081521586 0.11023339 -0.12885903 0.13628574 0.170813
-0.06686926 0.071464464 0.21995284 -0.11916944 0.1814025 -0.08133465 -0.07079729 -0.1538368
0.080841586 0.0125419665 -0.17110707 -0.15997405 0.18662834 0.13007583 -0.1276337 0.1712878
-0.21068938 0.026990812 -0.055355802 -0.03043163 -0.22205387 0.011848942 0.12810765 0.1310949
0.106780805 0.20455225 -0.13948485 0.019020483 -0.0012084356 -0.04091521 -0.14059307 -0.024405356
0.12637606 0.18174373 0.06772369 0.018962925 -0.09871039 0.16955702 -0.15456228 0.08604308
-0.066038385 0.21199654 0.18702173 -0.13105458 -0.17299974 -0.11630352 0.16588734 -0.16696548
00000000: e560 a3bd 8853 52be bd5d c3bd e542 15bd
00000010: 7130 f1bd ee20 d13d 920a 61bd 1168 46bd
00000020: 2c7f afbd a7e4 213e 98c6 1f3e 8097 1ebe
00000030: 956f 26be 48e6 01be f29f 2c3d 5123 313e
00000040: acd9 3bbe 3259 ee3d 484f e4bd 8bd1 513d
00000050: 15e5 453e f218 20be 5392 3fbe 5e86 ea3d
00000060: fdcf e93d b25a b5bd a578 0e3d caf4 a63d
00000070: 0bc2 e13d 9ff3 03be 7d8e 0b3e 9ae9 2e3e
00000080: c0f2 88bd f65b 923d 513b 613e 1b0f f4bd
00000090: 94c1 393e c892 a6bd 2bfe 90bd 6587 1dbe
000000a0: 4690 a53d d27c 4d3c b136 2fbe 3dd0 23be
000000b0: 801b 3f3e 9932 053e 69b2 02be 1266 2f3e
000000c0: f5be 57be d61b dd3c c4bc 62bd c14b f9bc
000000d0: 1762 63be 1122 423c a72e 033e be3d 063e
000000e0: e5af da3d 2576 513e 1ed5 0ebe d8d0 9b3c
000000f0: 5f64 9eba b596 27bd a1f7 0fbe beed c7bc
00000100: ba68 013e 071b 3a3e b8b2 8a3d 2358 9b3c
00000110: ac28 cabd 5ba0 2d3e 9345 1ebe 5b37 b03d
00000120: 223f 87bd 9f15 593e a082 3f3e 2c33 06be
00000130: d826 31be 8a30 eebd 5fde 293e 00f9 2abe

dense.weight f4 [20, 40]
0.07150322 0.06727572 -0.10595921 0.114940345 0.076216325 0.022957543 -0.13789947 -0.13905008
0.07358767 -0.12951086 0.11215705 -0.15031669 -0.08466266 0.059531707 -0.04459739 0.03828117
0.12092049 -0.092776075 0.056834657 0.012565331 -0.05666204 -0.14768915 -0.15399884 0.06762029
0.08788106 0.0019407731 0.052360006 -0.10907342 -0.033919536 0.058720905 0.060269486 -0.12778683
0.041816697 -0.14945556 -0.04608754 -0.0050789975 0.14731263 0.022385368 -0.011947418 0.0067494316
-0.083931245 -0.13608828 -0.038210403 0.070721135 0.074113704 0.1293883 0.024065742 0.1381946
-0.03815553 -0.044806767 -0.10378581 -0.104799144 0.1321097 -0.075519025 -0.045915645 0.047773607
0.024236059 0.105233505 0.099893354 0.1140414 0.10865385 -0.11639288 -0.12087536 0.15256211
-0.12833111 -0.07447654 0.05790215 0.14225157 -0.078849666 0.0020296865 0.013454077 0.08393841
-0.12244973 0.03588366 0.14773585 -0.119355865 -0.15497969 0.04816228 -0.0441807 0.07169729
0.046187937 0.12774803 -0.15647697 0.12972742 0.14751902 -0.051455032 0.03348102 -0.017664034
-0.1251577 -0.025537055 -0.09767012 0.13534944 0.07299854 -0.09302668 0.12142875 -0.067983635
-0.06115307 -0.033466466 -0.062560186 0.11003683 -0.12570974 0.15532428 0.00062261155 0.14504708
-0.13962065 0.028598672 -0.028766612 0.13538787 -0.059098523 0.099298015 0.12713511 -0.005354397
-0.029598298 0.04530349 -0.042293966 -0.042235076 0.15575589 0.062933184 -0.07183627 -0.12583724
-0.09531243 -0.12863714 0.1389073 0.08118635 0.036413036 0.1370291 -0.092123605 0.10740576
-0.104805246 -0.12206263 0.1329315 0.08935845 -0.012972115 0.15632975 -0.10361394 0.09454772
-0.116275154 0.10879016 -0.020285757 0.044673637 0.08343842 0.10487659 0.13093166 -0.10569358
-0.048200663 -0.094425835 -0.1101354 -0.13710979 0.085078254 -0.07521504 -0.05359526 0.14871757
-0.07265794 -0.037982937 0.08685803 0.104822084 0.0345866 -0.14456563 -0.09072196 0.0625875
-0.057641745 0.051281236 -0.01644771 0.15274477 0.07195046 -0.06806735 -0.13055833 0.13991694
-0.026207626 0.039166067 0.059004772 0.030471962 -0.13209316 0.0012122513 -0.04223048 0.11988498
0.123683125 -0.0958073 -0.14941126 -0.15621865 -0.12725168 -0.09854188 0.12705386 0.042130355
-0.08477818 -0.040209543 -0.10242155 0.13132828 0.05540035 0.049127582 0.07207049 -0.13419937
0.12265414 -0.15261257 -0.011328793 0.1131052 -0.035859082 -0.09898538 0.0710267 0.14351897
0.09555025 -0.061267313 -0.15551011 -0.07943678 0.1424504 0.076277286 -0.07269622 -0.12760249
-0.071956195 -0.086163804 0.021414163 -0.09185304 0.045090627 -0.15295774 0.045684658 -0.12422267
-0.014860362 0.0245043 -0.069954574 0.1544291 0.052605517 -0.09872022 0.106392644 -0.13178156
-0.13934724 0.032721147 0.00572535 0.09125809 0.13912676 -0.1106551 0.15138607 -0.050291136
-0.092525795 -0.056524422 0.025723929 0.01767098 -0.053411953 0.09282245 -0.12500218 -0.10510517
-0.09634468 -0.010885092 -0.016375937 -0.10165068 -0.061363507 0.13335036 -0.1566355 0.08903908
0.071917206 0.15765709 -0.06867209 0.049028706 0.050571203 0.0390659 -0.10874044 0.092455715
00000000: 4870 923d dac7 893d 2401 d9bd d865 eb3d
00000010: 4e17 9c3d 7511 bc3c 8535 0dbe 2563 0ebe
00000020: 22b5 963d 7f9e 04be 98b2 e53d 9eec 19be
00000030: 9e63 adbd 85d7 733d c1ab 36bd b7cc 1c3d
00000040: 29a5 f73d 6201 bebd 75cb 683d d1de 4d3c
00000050: 7516 68bd d33b 17be dfb1 1dbe 827c 8a3d
00000060: fcfa b33d 8a61 fe3a 7277 563d e361 dfbd
00000070: 36ef 0abd 5585 703d 23dd 763d 8dda 02be
00000080: fc47 2b3d e10a 19be 4ac6 3cbd b86d a6bb
00000090: 1fd9 163e 8561 b73c 1abf 43bc 562a dd3b
000000a0: 25e4 abbd ba5a 0bbe 8382 1cbd 3ed6 903d
000000b0: edc8 973d 5e7e 043e 8525 c53c e382 0d3e
000000c0: f948 1cbd 4d87 37bd a88d d4bd efa0 d6bd
000000d0: c447 073e b8a9 9abd 0b12 3cbd 42ae 433d
000000e0: b38a c63c aa84 d73d e394 cc3d 8a8e e93d
000000f0: e985 de3d 645f eebd 808d f7bd 3e39 1c3e
00000100: 3b69 03be 2887 98bd ce2a 6d3d 65aa 113e
00000110: ef7b a1bd 7d04 053b 7d6e 5c3c e7e7 ab3d
00000120: edc6 fabd bffa 123d 1148 173e d970 f4bd
00000130: ffb2 1ebe d045 453d d2f6 34bd 07d6 923d
00000140: 902f 3d3d 61d0 023e 803b 20be 44d7 043e
00000150: 3a0f 173e 83c2 52bd 6523 093d 2ab4 90bc
00000160: 5729 00be 1633 d1bc 4607 c8bd 0b99 0a3e
00000170: 4280 953d c684 bebd a3af f83d 013b 8bbd
00000180: a47b 7abd 2214 09bd 8e1f 80bd fd5a e13d
00000190: 0eba 00be 540d 1f3e c136 233a 3987 143e
000001a0: b7f8 0ebe c347 ea3c f5a7 ebbc 1ea3 0a3e
000001b0: 4b11 72bd c25c cb3d b52f 023e f073 afbb
000001c0: 2178 f2bc 2790 393d 703c 2dbd b0fe 2cbd
000001d0: 797e 1f3e 1de3 803d e51e 93bd 7adb 00be
000001e0: 2a33 c3bd 74b9 03be b73d 0e3e 0745 a63d
000001f0: d625 153d 5b51 0c3e 4dab bcbd 8df7 db3d
00000200: 22a4 d6bd f9fb f9bd 321f 083e 9001 b73d
00000210: fe88 54bc e814 203e 8c33 d4bd 3ca2 c13d
00000220: ab21 eebd 60cd de3d 512e a6bc b4fb 363d
00000230: c3e1 aa3d 8ac9 d63d f312 063e e075 d8bd
00000240: 0f6e 45bd 5562 c1bd ab8e e1bd 8266 0cbe
00000250: 823d ae3d 580a 9abd b486 5bbd 6b49 183e
00000260: b0cd 94bd ff93 1bbd 9fe2 b13d f6ac d63d
00000270: aeaa 0d3d 0309 14be 6fcc b9bd e02d 803d
00000280: c019 6cbd 460c 523d 59bd 86bc 2069 1c3e
00000290: c35a 933d e566 8bbd 15b1 05be 6346 0f3e
000002a0: 60b1 d6bc 996c 203d fdae 713d 56a0 f93c
000002b0: 6e43 07be 67e4 9e3a def9 2cbd 4286 f53d
000002c0: 944d fd3d 9e36 c4bd 44ff 18be c8f7 1fbe
000002d0: 444e 02be 53d0 c9bd 681a 023e e190 2c3d
000002e0: 2fa0 adbd c3b2 24bd 64c2 d1bd ec7a 063e
000002f0: 7aeb 623d 013a 493d b199 933d 8f6b 09be
00000300: 1832 fb3d 7846 1cbe 679c 39bc b3a3 e73d
00000310: f9e0 12bd d9b8 cabd 7276 913d a3f6 123e
00000320: d9af c33d 6ff3 7abd 0b3e 1fbe c0af a2bd
00000330: 85de 113e 4437 9c3d c1e1 94bd 3aaa 02be
00000340: c55d 93bd a676 b0bd c16c af3c 721d bcbd
00000350: f3b0 383d f4a0 1cbe d61f 3b3d 7568 febd
00000360: e078 73bc 3ebd c83c 5844 8fbd a922 1e3e
00000370: e278 573d d42d cabd 63e4 d93d bff1 06be
00000380: 0bb1 0ebe 9c06 063d b89b bb3b 86e5 ba3d
00000390: 3f77 0e3e 249f e2bd f304 1b3e 14fe 4dbd
000003a0: 2a7e bdbd 2786 67bd fdba d23c bbc2 903c
000003b0: 7ec6 5abd b219 be3d 9200 00be 6141 d7bd
000003c0: 5c50 c5bd 6357 32bc d426 86bc 3b2e d0bd
000003d0: 4d58 7bbd ff8c 083e 0e65 20be 1f5a b63d
000003e0: 5449 933d dc70 213e f4a3 8cbd 53d2 483d
000003f0: c023 4f3d 9103 203d 4fb3 debd 6c59 bd3d

dense.bias f4 [20]
0.106493175 -0.09005182 -0.041594815 0.13879202 -0.005910734 0.14864054 -0.020680027 0.07028672
-0.04477428 0.057577766 -0.08280492 -0.10051241 0.09559468 -0.088003024 -0.082815506 -0.15759037
-0.0042193113 -0.15169138 -0.10581245 0.05242621
00000000: 1819 da3d 176d b8bd 535f 2abd 7f1f 0e3e
00000010: d5ae c1bb 3a35 183e 2969 a9bc 7cf2 8f3d
00000020: 3c65 37bd aad6 6b3d a095 a9bd 73d9 cdbd
00000030: 25c7 c33d ee3a b4bd 2d9b a9bd 5f5f 21be
00000040: 2642 8abb fc54 1bbe 33b4 d8bd debc 563d
